weights/lyt_net_lolv2_real_800x400.onnx (onnx, 304913 bytes, 62 tensors)

scales__327 f4 [4]
000000 00 00 80 3f 00 00 80 3f 00 00 00 40 00 00 00 40
       1.0 1.0 2.0 2.0

const_fold_opt__990 f4 [32, 1, 3, 3]
000000 98 03 98 bb e8 6f 2c bd 36 3d 03 be d0 57 e2 bc
       -0.0046391003 -0.04209891 -0.12816319 -0.027629763
000010 51 70 22 3e 81 90 85 be 97 db e6 3d 33 00 94 3e
       0.15863158 -0.2608681 0.11272352 0.28906402
000020 23 be 42 bd 09 06 a4 bd 63 9b ca bd 04 06 65 bb
       -0.04754461 -0.080089636 -0.09892919 -0.0034946213
000030 09 57 75 be fb b7 ce 3d 46 ae 82 bd 0d 7e c9 bd
       -0.23958983 0.10093685 -0.06380896 -0.098384954
000040 ce 69 00 be c5 76 4c bc e3 03 e4 3d 50 1d 62 3d
       -0.12540361 -0.012479489 0.11133554 0.055203736
000050 6c 52 9b bc 6c f2 16 3e da d3 3f 3e a3 71 2f bd
       -0.0189602 0.14740914 0.18733159 -0.04283298
000060 5e fa a9 bd 70 8d 89 3c 11 87 b2 bd 24 6a 16 3c
       -0.08299707 0.016791075 -0.08717168 0.009180579
000070 e8 dc d7 bb a8 00 99 3c 94 a3 a7 bc 16 86 ab bc
       -0.0065876134 0.01867707 -0.020463742 -0.02093796
000080 8f e9 56 3d 46 fc 99 bd 47 75 51 be 1f f0 c7 bd
       0.052468833 -0.075188205 -0.20454894 -0.09762596
000090 2b 18 6d 3d a8 3e 11 3d 55 82 97 3c 42 ce 4e 3b
       0.057884376 0.035460144 0.018494764 0.0031556045
0000a0 8f 30 e3 3d 1e 3e 2c bd cf c1 da 3d 82 f0 22 3e
       0.11093246 -0.042051427 0.10681497 0.15912059
0000b0 dd da f8 bb 5f 68 9e 3d 8e 80 8f bd 54 84 09 be
       -0.00759445 0.07734751 -0.07006942 -0.13429385
0000c0 4f 8b df bd 1c fd 02 3c d2 46 af 3d 48 48 43 be
       -0.10915243 0.007994916 0.0855843 -0.19070542
0000d0 99 72 2a be a0 c1 11 be e2 4c d2 bd 30 9b c0 bd
       -0.16645278 -0.14234018 -0.102685705 -0.094046
0000e0 8f 36 1d be 81 90 58 3e ef 33 64 3e b7 09 88 bd
       -0.15352844 0.21148874 0.22285436 -0.06642478
0000f0 53 da 11 3e 4d 32 09 3e 2c da 37 be e9 f7 84 bd
       0.1424344 0.13398094 -0.1795432 -0.064925976
000100 05 2d 19 3d 5c 09 63 3d d6 9f 18 bd 6f 8a a2 bd
       0.03739645 0.055428848 -0.037261806 -0.0793656
000110 97 09 70 bd cd 33 a1 bd 50 be ef 3d e3 b5 83 bd
       -0.058602896 -0.07871208 0.11706221 -0.064311765
000120 b6 5d 86 3d bb ca 2c 3e b8 65 31 3d 16 fa 09 bd
       0.06560843 0.1687421 0.043309897 -0.033685766
000130 ac 55 67 bb 44 38 af 3d eb f3 e7 bd 49 6c 6d 3d
       -0.0035298867 0.08555654 -0.113258205 0.057964597
000140 bf a5 24 3d 1c 4b c6 bd 4f a9 47 be 65 da 47 3d
       0.04019713 -0.09682295 -0.1949818 0.04879226
000150 17 eb 1f be e0 7e de bb f2 16 00 bd 52 fa c7 3c
       -0.15617023 -0.006790027 -0.031271882 0.024411354
000160 8e 5a b8 bd b5 e6 1b be 37 ce 25 be 0c 75 3a be
       -0.09001647 -0.15224726 -0.16191946 -0.18208712
000170 b8 0a 9d bd 11 b4 0e be fc a9 2b be 8e dd 1c be
       -0.0766806 -0.13935877 -0.16764063 -0.15318891
000180 4d 3b 00 3c 0f 61 0e be ad 86 82 3d 4b 90 da bb
       0.007826638 -0.13904212 0.063733436 -0.006670033
000190 13 ca f1 bd 02 80 6a 3d a6 12 c9 3d 5c b7 69 bd
       -0.11806121 0.057250984 0.0981801 -0.05705963
0001a0 31 2d bf bc 8e af 80 3c 49 14 45 bd 68 f2 37 3c
       -0.023336979 0.015708711 -0.04811505 0.011227228
0001b0 17 80 32 3d f9 d9 0f bc 92 7e 91 bd dc bd 14 3e
       0.043579187 -0.008779996 -0.071042195 0.1452555
0001c0 c6 e2 55 bd f8 95 5f 3d 79 66 80 3c 2b 42 77 3d
       -0.05221822 0.05458638 0.015673863 0.060365837
0001d0 b3 08 c1 3d c2 53 db 3d 2a 71 48 be 20 2c 4c be
       0.09425487 0.10709335 -0.19574419 -0.19938707
0001e0 41 e5 b6 bd 8c 13 04 be 94 7c be bd c3 dd d8 3c
       -0.089304455 -0.12898082 -0.09301105 0.026472932
0001f0 f3 f5 05 be 27 b1 c4 bd 8c be ac be 95 60 4e bc
       -0.13082103 -0.09604102 -0.33739126 -0.012596269
000200 7c 21 11 be ca 97 b4 3c 95 7c c0 3e ac aa 3b bd
       -0.1417293 0.022045035 0.3759505 -0.045817062
000210 85 ce 68 be 76 c8 a1 3d 49 b6 aa be 6d b8 90 bd
       -0.22735031 0.07899563 -0.33342198 -0.070664264
000220 e4 5d 81 3c e5 d9 f5 3c 96 f5 0b 3e be 45 2a 3e
       0.01579184 0.030011127 0.13667902 0.16628167
000230 6a 30 6f 3d 27 97 9f 3d 13 26 7f bd 8c fc fb bd
       0.05839578 0.07792502 -0.06229217 -0.12304029
000240 7c c0 ba 3d d7 8e 1c 3e 17 77 b6 3d 30 6f 4d 3e
       0.09118745 0.15288864 0.08909433 0.20061946
000250 3e ee 55 3e 72 9b 1a 3e 93 d3 85 bd 68 04 33 3e
       0.20891663 0.1509836 -0.06534495 0.1748215
000260 a9 46 ed bd 26 5a a7 bd fb fe 6e bc 64 8a 58 be
       -0.11585743 -0.08171491 -0.014587159 -0.21146542
000270 3d 98 4e bc 7d c1 0b 3d 19 a4 84 bd 6c e2 44 be
       -0.012609539 0.03412007 -0.06476612 -0.19226998
000280 6d 50 82 bc bd 4b d2 bd cb b6 b2 3c 73 33 77 bb
       -0.01590749 -0.10268352 0.021815678 -0.0037719875
000290 b3 4f 92 bd 05 2a 1a 3d c6 34 15 3d 86 2b c9 bb
       -0.07144108 0.03763773 0.03642728 -0.0061392216
0002a0 4f fb 24 3e 93 00 6f 3e 95 13 bb 3d 5f dc 05 be
       0.16111492 0.23340063 0.09134594 -0.13072346
0002b0 30 5f 86 3d 31 68 01 3e 93 94 ca 3d 79 d7 b1 3d
       0.06561124 0.12637402 0.098916195 0.08683676
0002c0 6a 41 a4 bd 2e 48 c6 3d d0 d0 64 3d f3 98 28 3c
       -0.08020289 0.09681736 0.0558632 0.010290372
0002d0 69 26 c4 3d 9b e8 d7 3d d4 d6 a3 bd 01 69 83 bd
       0.09577639 0.10542413 -0.079999596 -0.06416512
0002e0 c7 70 2f 3e 84 0c ac bd 9b d4 6f 3c d3 4a a6 3d
       0.17132865 -0.08400825 0.014638091 0.0811974
0002f0 95 9c 26 be d8 ac cb bd 18 58 3b 3d 8d 44 fa bb
       -0.16270669 -0.09945077 0.04573831 -0.0076375664
000300 c8 9b 9e 3b 34 b6 af 3d cf c3 9f bc f2 2a 07 3e
       0.004840348 0.08579674 -0.019502549 0.13199976
000310 ff 12 a1 3c 0d 06 dd 3d 8c 9b 03 be be 82 7b bd
       0.019662378 0.1079217 -0.12852305 -0.061403982
000320 98 2e 99 3d 6d 15 46 be 35 2a 6c bd aa 09 a0 bd
       0.0747959 -0.19344111 -0.05765744 -0.07814343
000330 d3 75 26 be d3 b7 ca 3c d7 47 18 bc ce b5 a3 bd
       -0.16255884 0.024745857 -0.009294472 -0.07993661
000340 67 b8 48 3c 5d 66 49 bc 4c d0 2b 3e 7f 85 0a 3e
       0.012250996 -0.012292472 0.16778678 0.13527487
000350 10 b9 f4 3d e0 43 a5 bd 0b a7 aa 3d 67 fa bc 3b
       0.1194936 -0.08069587 0.08332642 0.005767155
000360 80 c4 2f be 51 b2 d3 bd 3e d6 89 bd b3 a2 e0 bc
       -0.17164803 -0.103367455 -0.067303166 -0.027421331
000370 80 7b 29 be f7 08 5c be dc 8f 86 3c 4a 16 06 be
       -0.16551018 -0.21487795 0.01642602 -0.1309444
000380 2f 4a e5 bd ac d0 e2 3d 83 a8 9f 3d fd 4e ab bd
       -0.1119579 0.11074957 0.07795813 -0.08364675
000390 94 19 94 bc f0 b7 5a 3c f6 42 45 bc a0 09 fd bd
       -0.018078603 0.013349518 -0.0120398905 -0.123553514
0003a0 bf 9f 60 bc fd 77 82 3d 8e b3 0b 3d 26 4a 33 bd
       -0.013709961 0.06370542 0.034106784 -0.043771885
0003b0 43 da 01 be e5 9e 31 be de 5f 4a 3d 2c d8 0d be
       -0.12680916 -0.1734577 0.049407832 -0.13851994
0003c0 fc d2 11 bd cb 64 a1 bd e5 f6 77 be d9 23 e7 3d
       -0.0356016 -0.07880553 -0.24215277 0.11286134
0003d0 a1 a9 11 bd 04 2c d1 bd 9e ac df bd 18 bd 71 bc
       -0.03556216 -0.102134734 -0.10921596 -0.014754556
0003e0 3c 99 5a 3d ed 5b fc bd e2 e6 26 be 09 84 24 3d
       0.053368792 -0.12322221 -0.16299012 0.04016498
0003f0 2e ef 08 3e ec 92 f5 3c 0a 64 3e 3e 05 d9 44 3d
       0.1337249 0.029977284 0.1859285 0.04805853

StatefulPartitionedCall/lyt_6/sequential_20/conv2d_128/Conv2D/ReadVariableOp:0 f4 [32, 1, 3, 3]
000000 a4 ca a5 bd a3 34 39 3d 4d f8 e2 bd 30 e8 ff bd
       -0.08095291 0.045216214 -0.11082516 -0.12495458
000010 cc 14 80 bd ba 3f 00 3d 89 da ae bd 19 63 3b 3c
       -0.06253967 0.031310774 -0.08537776 0.011437201
000020 87 ec 31 3d c8 50 2b 3d 8d d2 e0 bd 5d ea 22 be
       0.04343846 0.041825086 -0.109776594 -0.15909715
000030 91 ec b3 3d 50 03 d2 bd 1e 81 cd bd 89 44 8b 3e
       0.08785356 -0.10254538 -0.10034393 0.27200726
000040 4c 46 e4 3c 85 66 71 3c fe df 86 3d 0f 21 8f 3d
       0.027865551 0.014733915 0.06585692 0.06988727
000050 c7 c3 e5 3d 95 da a1 3d 6c ea ac 3d b9 37 8e bd
       0.11218982 0.07903019 0.0844315 -0.06944222
000060 1b 6d 56 bb fb 88 48 bc 59 8a 86 bd 74 f1 96 3c
       -0.003271884 -0.01223969 -0.065693565 0.01842568
000070 29 b1 10 3b bc 92 0a 3d a9 fe 6c 3d cb af 4a 3d
       0.0022078252 0.033831343 0.05786005 0.049484055
000080 50 ed f3 3d e5 d6 31 3c 15 e1 e3 3b 2f f6 db 3d
       0.11910498 0.0108544575 0.006954322 0.10740315
000090 14 63 45 bd 80 c9 d2 3d 1a 18 94 bb 29 cb 59 3b
       -0.04819019 0.10292339 -0.0045194747 0.0033232665
0000a0 fe b8 b6 3d b6 8c 0b 3e 50 36 c0 bd 70 c1 dc bd
       0.08922003 0.13627896 -0.09385359 -0.10779083
0000b0 09 86 e0 bd 84 dc 37 be b9 68 02 bd de e8 31 3e
       -0.10963065 -0.17955214 -0.031838153 0.17373988
0000c0 e4 2a 23 be 35 ff 79 3d 63 b2 91 3d f5 24 e9 bd
       -0.1593433 0.0610344 0.07114103 -0.11384002
0000d0 ba f5 82 3d c8 5f ec 3d 26 d3 c2 3c cc b5 ce 3c
       0.06394525 0.11541706 0.023782324 0.025233172
0000e0 74 3f b4 3d b9 75 f1 bd 90 10 ec bd ec 45 5d 3d
       0.08801165 -0.11790032 -0.115265965 0.05402176
0000f0 48 bc 1c be 1a 33 e2 3b 19 fc 34 3d 0b 85 50 be
       -0.15306199 0.0069030644 0.04418573 -0.20363252
000100 19 1d b1 3d cc 21 75 3d e7 67 bd bd fe 3f 5f 3e
       0.08648128 0.059846684 -0.092483334 0.21801755
000110 a7 65 df 3b ea f4 f5 bd 00 bd 3a 3c f9 76 ab ba
       0.006817538 -0.12009604 0.0113976 -0.0013081721
000120 31 75 c9 3d 1d 8b 31 3e fd 76 65 3d e3 93 03 3e
       0.098368056 0.17338224 0.05602168 0.12849383
000130 d0 9f 9c bd a7 99 5c bd 14 bc 79 be 23 51 bb bd
       -0.07647669 -0.05385747 -0.24388152 -0.09146335
000140 50 c2 5e 3c 20 1d e2 3d 5d c9 c4 3c d4 67 96 3d
       0.013596132 0.110407114 0.024021799 0.073440224
000150 f7 8c e3 3c b1 b7 9d bb a5 17 f5 3d b8 1b 92 3d
       0.027777178 -0.0048131575 0.119674005 0.07134193
000160 52 d5 d6 3d 00 7c 9c 3c 8b bb 3a b7 e2 36 03 bd
       0.10489906 0.019102097 -1.113013e-05 -0.032034762
000170 c1 22 83 bc b8 80 4c bd e2 f6 09 3d 37 a8 7a bd
       -0.016007783 -0.049927443 0.03368271 -0.06119558
000180 49 bb 72 bd d3 62 de bd a7 a5 79 bd 0f 77 f2 3d
       -0.05926064 -0.10858693 -0.060948994 0.11839115
000190 a4 93 90 3c 47 f1 8b be 88 2f be 3d 33 94 d4 3d
       0.017648526 -0.27332518 0.092864096 0.10379829
0001a0 ee e5 a4 bc 8c 38 9c 3d b3 43 11 3d 61 df 2e be
       -0.02012917 0.07627973 0.035464954 -0.170774
0001b0 96 75 5b 3c b6 9b 8a bb 41 2e 93 bc d1 ca 0f bd
       0.013394734 -0.004229988 -0.017966392 -0.03510553
0001c0 e3 a4 de bb 24 ea 4d bc fe 19 0b ba dd 4a 2a bd
       -0.0067945584 -0.0125680305 -0.00053063023 -0.0415753
0001d0 6a ee bf bc 3a f9 04 3c a4 a0 06 be 9d 04 a8 bd
       -0.023429114 0.008116061 -0.13147217 -0.08204005
0001e0 f6 38 58 3c ef 67 c5 bd 45 64 73 bd 53 d4 9a 3c
       0.013197174 -0.096389644 -0.059421796 0.018900072
0001f0 d9 5c 63 bd de cc b0 3b a3 78 1e 3e 8c df 9b bd
       -0.05550847 0.005395516 0.15475707 -0.076109976
000200 b6 59 40 bd a7 83 04 bd 1f 7f fd 3c c3 09 7b bc
       -0.046960555 -0.032352116 0.030944405 -0.015322152
000210 2a 3f 9f 3c 75 7d 81 bd 44 23 1f 3b bd 94 98 bb
       0.019439299 -0.06322757 0.0024282495 -0.004656403
000220 2b fb b3 bd 4d 1f 72 bd 61 69 54 bb ef bb 6c bd
       -0.08788141 -0.059111882 -0.0032411444 -0.057796415
000230 bb 0f 9a bd 44 c1 14 3d a8 86 c4 bd d8 95 41 3c
       -0.075225316 0.036317125 -0.09595996 0.011815511
000240 98 dc 42 3d fa ff 9d 3c dc 44 4f 3e 9c 28 b8 bd
       0.047573656 0.019287098 0.20241112 -0.089921206
000250 79 fc 8f be a4 9b 53 bd e7 ab 7f 3d 0b 0a a6 3d
       -0.2812231 -0.051662102 0.0624198 0.08107384
000260 36 5b a7 bb 95 7f 21 bd 02 f0 90 3d bd e6 a8 bc
       -0.0051073087 -0.039428312 0.07077028 -0.020617837
000270 56 f8 2b bc f9 5c 66 3d 9b 96 70 3d 75 39 5e bd
       -0.01049622 0.05624101 0.05873738 -0.054254014
000280 6e 7a e8 3d f1 a8 01 3d e0 7b 08 bd aa a0 c2 bc
       0.113514766 0.031655256 -0.03332126 -0.023758251
000290 80 f1 69 bd 87 49 b5 bc 2d 61 0a bd 2e 6c 64 bd
       -0.057115078 -0.022129787 -0.03378408 -0.05576723
0002a0 73 ad c8 bd 3d 60 d2 bd 96 da 0c bd 6c d7 62 be
       -0.09798708 -0.10272262 -0.034388147 -0.2215249
0002b0 96 2c 86 bc 5e 1f a5 3d 2e 4c 16 3e 25 61 c6 3d
       -0.016378682 0.080626234 0.14677498 0.096864976
0002c0 12 7d 08 bd 2a c2 e4 3c 5b e0 d7 3d 66 84 40 be
       -0.0333224 0.027924616 0.10540839 -0.18800506
0002d0 f2 d7 8a 3d c5 da 1b 3e e1 13 ea 3d b1 54 31 3d
       0.067794695 0.15220173 0.11429573 0.04329366
0002e0 11 fd 99 3c 2c 43 9b 3c 49 1d 0f be 5d ab ec bd
       0.01879743 0.018952928 -0.13976015 -0.115561225
0002f0 15 90 19 be 8e 65 59 3e de 22 97 be 2d 99 e6 3c
       -0.14996369 0.21230146 -0.2951879 0.028149212
000300 f6 e6 ac bd ab ce 2f 3d 60 12 30 3e 8b 67 9f bc
       -0.0844249 0.042921703 0.1719451 -0.019458553
000310 42 0a 58 bb 2a 26 7c bd 9f 14 2b 3e 56 94 0b bc
       -0.0032965099 -0.061559834 0.16707085 -0.008519253
000320 72 c3 02 be 11 56 1c be e9 88 00 3c 6f de 7d 3d
       -0.12769869 -0.15267207 0.007845142 0.061979707
000330 cb 19 d4 bc 61 99 e4 bb 78 dc b3 3d 99 29 88 bd
       -0.025891205 -0.006976292 0.087822855 -0.06648559
000340 d6 12 08 3e 6b 7c ac bd c4 06 3c 3e 15 58 41 be
       0.13288435 -0.08422168 0.18361956 -0.18881257
000350 cf 2c 69 3d 94 08 15 bd 75 8e 4d be c8 15 4d 3e
       0.0569275 -0.036385134 -0.20073874 0.2002784
000360 2e 57 dc bb 8c fb 1b 3d c6 96 d3 3c 5e e0 30 3c
       -0.00672426 0.03808169 0.02582873 0.010795681
000370 8d aa 9a bd 6e 03 30 bd 7a 94 6c bd 34 05 1d 3b
       -0.07552061 -0.04297202 -0.057758786 0.00239594
000380 74 43 9e bd 04 ca 90 bd 33 7d 3b bd 49 df ce bd
       -0.077277094 -0.070697814 -0.045773696 -0.10101182
000390 fe f3 38 3d 4b c4 a9 bc 4e ac 96 3d eb 2c bb bc
       0.045154564 -0.020723483 0.07357083 -0.022848567
0003a0 72 96 c8 3c 66 25 31 3e 66 85 0b be a1 4e f6 bd
       0.0244858 0.17299423 -0.13625106 -0.12026716
0003b0 27 cf 37 3d 03 10 a0 bd 11 88 17 bc c3 06 ea 3d
       0.04487529 -0.07815554 -0.009248749 0.11427071
0003c0 c4 2a 7e bc 5f b2 39 3d 68 05 fd 3d 2a ea 09 3d
       -0.015513126 0.045336124 0.12354547 0.033670582
0003d0 e9 1b 19 3d f4 0a cf bb c9 b7 19 bd 57 51 1d 3d
       0.037380133 -0.0063184444 -0.037528787 0.03840765
0003e0 6a 20 94 bd 3d 3c 6f 3c 50 07 09 be 2c e4 88 bd
       -0.07232745 0.014601764 -0.13381696 -0.06684145
0003f0 1d cc b1 3d a3 60 d3 bc 10 7d a9 bd 65 68 b4 3d
       0.0868151 -0.025802916 -0.08275807 0.08808974

StatefulPartitionedCall/lyt_6/sequential_20/conv2d_128/BiasAdd/ReadVariableOp:0 f4 [32]
000000 60 4f 07 38 51 0e 0e bc 0c 66 1c bc 05 b8 fa bc
       3.2260432e-05 -0.0086704055 -0.009545814 -0.030605325
000010 65 89 61 3b 3c 33 f6 bb 2f f6 c0 bc ce c5 7d 3b
       0.003441417 -0.007513432 -0.02355489 0.0038722637
000020 b4 ad a0 bb 9b 56 e7 bd 1c 1d f4 bc 69 53 8a bb
       -0.0049035195 -0.112958156 -0.029799037 -0.004221369
000030 7e 07 2f 3c 46 c8 02 ba de 4a 88 bc 84 56 94 bd
       0.010682939 -0.00049889495 -0.016637262 -0.07243064
000040 a4 fe c2 b9 39 37 0d bc 45 43 e7 bc a0 e7 83 b9
       -0.00037192286 -0.008619123 -0.028230319 -0.0002515884
000050 9f d0 1f bc 42 cc 03 ba 6d f7 aa bb dc b0 8f b9
       -0.009754329 -0.000502769 -0.0052174837 -0.00027406856
000060 f9 bf d1 bb 7f 3e c6 ba d7 51 0c bc f9 92 99 3b
       -0.0064010588 -0.0015124826 -0.008564434 0.00468671
000070 a7 83 aa ba f3 19 30 bb 4a 79 43 3c ff 0e be bb
       -0.0013009206 -0.0026870936 0.011930773 -0.0058001275

StatefulPartitionedCall/lyt_6/sequential_19/conv2d_127/Conv2D/ReadVariableOp:0 f4 [32, 1, 3, 3]
000000 18 05 5e 3e 20 ca ac 3a 31 a1 2a be 29 44 0e 3e
       0.2168163 0.0013182797 -0.16663052 0.13893189
000010 d4 d2 1e bd 04 38 fa bd 3c 54 56 3e 34 ed 58 bd
       -0.03877528 -0.122177154 0.2093057 -0.05296059
000020 3d 8b 32 be f5 99 98 3c 06 05 67 3c 70 f2 00 be
       -0.17435928 0.0186281 0.014100319 -0.12592483
000030 20 5c 2a 3e 05 f4 53 3d 54 24 37 3d 0e a8 6b 3d
       0.16636705 0.051746387 0.04471238 0.057533316
000040 bb bf 28 be 1e e2 7e bd e7 3b bf bd 0f 31 a1 3d
       -0.1647939 -0.06222736 -0.09337597 0.07870685
000050 eb d0 e8 bd fd 2d 8f 3d cc db a3 bc 42 df 8b bd
       -0.11367973 0.069911934 -0.020002268 -0.068296924
000060 56 a8 3b bd 8e 9c 04 3e e2 cd 4c bc 6e 1c c6 bc
       -0.045814835 0.12950346 -0.012500258 -0.024183478
000070 70 d6 e8 bd e0 08 5a be 07 41 2e 3d 75 48 0f 3d
       -0.11369026 -0.21292448 0.042542484 0.03498121
000080 90 96 eb bd 63 b3 19 3e 16 9f 01 3e db 2d a5 3d
       -0.11503327 0.15009837 0.12658343 0.08065387
000090 3e d5 71 b9 45 48 88 bd 9f 0b 26 3d 98 7f 96 3c
       -0.0002306299 -0.06654409 0.040538426 0.018371388
0000a0 42 d6 af bd 97 22 40 bc f9 65 7e 3d 1a 5b 3e bd
       -0.08585788 -0.011726997 0.062108967 -0.0464736
0000b0 6b 00 dd 3d da ee ea bc bf 22 49 3d 4f 76 e5 3c
       0.10791095 -0.028678346 0.049105402 0.028010515
0000c0 8f da 6d 3d 8c 4b a8 3d 02 55 60 3d c4 e2 e6 bd
       0.05806976 0.082175344 0.05476857 -0.11273721
0000d0 23 a4 b9 3c e9 6c 18 be a3 5d 92 3c 85 0d 9b 3b
       0.022661274 -0.14885296 0.017866915 0.0047318363
0000e0 44 2c 8a 3b ff 5f c2 3c e2 5a 67 bd e4 cb 4d bd
       0.0042167027 0.023727415 -0.056483157 -0.050243273
0000f0 87 fb 35 3d 82 fe 82 3d 43 96 ad bd 54 ed 0d 3c
       0.04442933 0.063962 -0.08475926 0.00866254
000100 bb 49 ec 3b 08 a9 32 3d 76 f8 2c bc 2e 32 24 3c
       0.007210938 0.043618232 -0.010557285 0.010021729
000110 7d a2 ad 3c 56 99 74 3b 02 bf 5d bd 7b 29 80 bd
       0.021195645 0.003732284 -0.054137237 -0.06257912
000120 24 e4 9f bd f1 76 0f 3e ba 98 c5 bd 8a 69 93 bd
       -0.07807186 0.14010216 -0.09648271 -0.07197864
000130 c1 02 51 3d f4 7d 3a 3e 35 d4 ad 3c d2 42 8a bd
       0.051028017 0.1821211 0.021219352 -0.06751026
000140 44 a1 0a be ac 12 40 be 75 41 13 3c ab 70 f5 3d
       -0.1353808 -0.18757123 0.008987774 0.1198438
000150 00 72 45 be b7 2f 17 3c e8 9d 4b 3e 8d d5 30 be
       -0.19281769 0.009227685 0.19884455 -0.17268963
000160 21 ae 61 3d 7c e5 1b 3e 2d d7 db bb 05 18 27 bb
       0.055097703 0.1522426 -0.0067090006 -0.0025496494
000170 ba 0e 6f 3d ce 2f 35 be 24 68 8d bc c7 01 fc 3d
       0.058363654 -0.17694017 -0.017261572 0.123050265
000180 7b a5 34 be 74 3f 55 3d 6a eb 0d 3e 01 78 d5 3d
       -0.17641251 0.052062467 0.13859335 0.104232796
000190 0f fd d5 bd 15 5a 06 be 51 db c6 3c 8d 57 ab 3d
       -0.10448658 -0.13120301 0.0242745 0.08366308
0001a0 b6 a4 c8 bc 0e db a8 bd 1c a0 d4 3d e5 6f 72 bc
       -0.024492603 -0.08244906 0.10382101 -0.014797186
0001b0 4e f0 bc bc 12 2b c5 bd ba f4 55 3d 23 d8 8c 3d
       -0.023063805 -0.09627356 0.052235343 0.06877162
0001c0 86 6d db bd 2c 79 c8 bc 6c af ae bd 0e 23 05 be
       -0.10714249 -0.024471842 -0.08529553 -0.13001654
0001d0 61 ae d8 bd 57 bb 5d 3d d3 d0 8c 3d 19 43 00 3d
       -0.10580135 0.05413374 0.068757676 0.03131399
0001e0 07 59 b1 bc 3b 77 a0 3d 7d d8 e7 bc 4e e1 83 bd
       -0.021648897 0.078352414 -0.028301472 -0.06439458
0001f0 ae 35 8c bb 21 be e7 bb 1d 4b d8 3d d9 19 eb bd
       -0.00427886 -0.0070722257 0.10561202 -0.114795394
000200 59 d7 e9 3d 40 54 9d 3d c5 e5 c9 3d 74 d6 09 be
       0.114180274 0.07682085 0.09858278 -0.13460714
000210 a9 89 73 3d 46 97 6e 3c 19 b8 5d 3d fb 2f 00 3e
       0.059457455 0.014562434 0.054130647 0.12518303
000220 f8 0c f0 3d ce f8 d7 3d af 34 47 3c ec b0 05 bc
       0.117212236 0.105455026 0.012158557 -0.008159857
000230 57 24 4b 3d 8f 56 f2 bd a9 e4 1a be d2 e4 33 be
       0.049595203 -0.11832916 -0.1512629 -0.17567757
000240 56 81 c0 3d 5e ca ac bd 8b f5 b7 bd cf 8b b3 bd
       0.09399669 -0.08437036 -0.089823805 -0.08766901
000250 8b 85 ce bd e4 05 af bd 9e 96 af bb 6a 77 a5 bd
       -0.10084065 -0.085460454 -0.005358531 -0.08079417
000260 a4 a8 6a 3c 43 4c 1e be a4 da 14 3e 84 a3 1b bd
       0.014322434 -0.15458779 0.1453653 -0.037997738
000270 c2 d4 60 3e 85 01 21 be f0 33 94 3b 2f ab 37 3d
       0.2195616 -0.15723236 0.004522793 0.044840988
000280 48 85 5b be 84 84 10 3e 89 a4 97 bc 23 3c 5a bd
       -0.21437562 0.1411305 -0.018511074 -0.053280007
000290 94 92 19 bd 51 a3 9e bd 58 98 6d 3d 30 d5 a4 3c
       -0.037493303 -0.07745994 0.058006614 0.020121187
0002a0 16 38 9b bd 64 f3 4b bd 10 a1 64 bd 60 93 33 3d
       -0.07579057 -0.049792662 -0.055817664 0.04384172
0002b0 08 eb bf 3d 17 c7 4d 3c 98 0d 02 bd 4d 42 04 be
       0.093710005 0.012559674 -0.031751245 -0.12915917
0002c0 0b 37 a2 3a a6 6d 76 bd 60 e7 9f bd 86 9b d8 bb
       0.0012376023 -0.060163163 -0.07807803 -0.0066103367
0002d0 3f be 59 bd bc bc db bd fb 08 e4 bb b3 76 e0 ba
       -0.05315995 -0.107293576 -0.0069590784 -0.0017125219
0002e0 5e ae c3 3c 84 2b eb 3c 09 da cc bd da 9b ba bb
       0.023886856 0.028707273 -0.100025244 -0.0056948485
0002f0 b6 8d 99 bd 86 6e a8 bd 44 74 03 be d8 dd 30 bc
       -0.07497732 -0.08224206 -0.1283732 -0.010795079
000300 27 46 3b 3e c3 2c 8d 3d ff 1c 60 3e 12 27 c5 bd
       0.1828848 0.06893303 0.21886061 -0.09626593
000310 36 65 07 3e 94 ac 91 be 5d 81 7d 3c e8 df 8a bc
       0.13222203 -0.2845198 0.015472737 -0.01695247
000320 36 b1 d5 3d 38 ce d2 3d af 10 8b 3d bb 1e 69 3d
       0.10434191 0.10293239 0.067902915 0.056914072
000330 a1 76 0f 3d ef c8 00 3d 25 75 a3 3d 39 d9 a3 3d
       0.035025243 0.031441625 0.07981328 0.08000416
000340 11 0e 71 3e 58 c5 48 3e 9a 1a 22 39 19 c9 92 bd
       0.23540522 0.1960653 0.00015459434 -0.071672626
000350 59 7b 00 bd 2c 36 b6 bd 3d 88 28 be 81 a3 13 be
       -0.031367633 -0.08897051 -0.16458221 -0.1441784
000360 1f fd ee bd 76 57 21 be c8 76 49 be a9 d0 30 3d
       -0.11669373 -0.1575602 -0.19674218 0.043167744
000370 0c e8 23 3e 1f 6c 52 3d 4b c9 38 bd 10 22 d6 3d
       0.16006488 0.051372644 -0.045113843 0.10455716
000380 6c e3 19 3e 2b 02 8a 3d dc 95 e2 3c 70 5c fb 3d
       0.15028161 0.06738695 0.02765935 0.122734904
000390 d5 0e b5 bc 7e 90 fb 3c 8f c5 0f 3d e6 70 69 bd
       -0.022101799 0.030708548 0.035100516 -0.056992434
0003a0 63 2c 86 bc d7 4d fd 3c e2 17 3f be af 0c 3b be
       -0.016378587 0.030920906 -0.18661454 -0.18266557
0003b0 9d 5d 1e be a3 35 31 3d c4 a3 f0 bc 6b 35 de 3b
       -0.15465398 0.043264043 -0.029374965 0.0067812703
0003c0 70 3c 2b 3e 2c f1 2d 3e e6 98 19 3e 19 db d3 bd
       0.16722274 0.16986531 0.14999732 -0.10344524
0003d0 e4 91 06 3d 5a a4 be bd 97 82 68 bd b3 fa e5 bc
       0.032853976 -0.09308691 -0.056765165 -0.028073644
0003e0 c9 2f e1 bd e1 d2 52 3d ac 01 77 bd b4 d6 08 3c
       -0.109954424 0.05147064 -0.06030433 0.00835197
0003f0 0a 90 7b 3c f0 92 8c 3d 39 3f a7 3d ce 6b f7 3d
       0.015354166 0.068639636 0.08166356 0.12081109

StatefulPartitionedCall/lyt_6/sequential_19/conv2d_127/BiasAdd/ReadVariableOp:0 f4 [32]
000000 09 7c e4 bb 63 de 03 bd 7f c5 15 b9 d0 6d dc bc
       -0.006972794 -0.032194506 -0.0001428332 -0.026907831
000010 22 15 40 3b c0 f1 48 3b 13 97 d0 3b f3 2a b8 bc
       0.002930947 0.0030661672 0.0063656657 -0.022481417
000020 0f a5 2e 3b b2 16 bb bb 70 0a 6a 3b b6 f1 37 3a
       0.0026648676 -0.0057094926 0.0035711788 0.0007016914
000030 0f 4a 74 bd 78 7a b0 bc 82 08 54 bc 57 42 55 bc
       -0.05964094 -0.021542773 -0.012941482 -0.013016305
000040 15 4d 0a be 18 aa cc b8 b7 c9 9d bc 63 33 3f 3c
       -0.13505967 -9.7591605e-05 -0.019261224 0.011669966
000050 47 ec b6 3c 45 21 aa ba 4a cc 19 be a8 2d bb bb
       0.022329463 -0.0012979886 -0.15019336 -0.0057122298
000060 8d 3f 88 bc 80 dd c1 bb 9f 3f e1 bb bf 3b ac 3c
       -0.016631866 -0.0059162974 -0.0068740393 0.021024583
000070 13 8a 29 bc 1f dd 84 bc b3 3f 07 bd b1 a1 43 bc
       -0.010347861 -0.01621872 -0.033019733 -0.011940406

StatefulPartitionedCall/lyt_6/sequential_18/conv2d_126/Conv2D/ReadVariableOp:0 f4 [32, 1, 3, 3]
000000 e8 8f 84 3e 3e 89 ee bc 2c cb 57 be 09 bb be 3e
       0.25891042 -0.029118177 -0.21073598 0.37252071
000010 4c a1 14 bd 44 c4 b8 bd e6 77 22 3e 7e 5c 75 3c
       -0.036286637 -0.0902181 0.1586605 0.014975665
000020 b7 d3 5c 3d 3d c3 01 bc 14 36 c8 3d 72 81 f1 3c
       0.053912845 -0.007920084 0.097759396 0.02948067
000030 11 4c ca bd 46 f0 58 3d 3e 90 05 3d 2c a4 27 be
       -0.0987779 0.052963518 0.032608263 -0.1637122
000040 4a 3e 13 be 5d ac c8 bd 00 b8 8c bd 61 ec 5e be
       -0.1437923 -0.09798501 -0.06871033 -0.21769859
000050 4e 3d 42 bd 76 84 05 3d a6 9c 76 3d 06 be 3a be
       -0.047421746 0.032597028 0.060207985 -0.1823655
000060 51 19 81 3e 26 8d e9 3d d0 de b4 3e a7 df 01 3d
       0.25214627 0.11403875 0.35326242 0.031707432
000070 b8 6c e1 bd 29 a1 23 be fd 36 19 be ad 47 ef 3d
       -0.110070646 -0.15979446 -0.14962383 0.11683593
000080 dc 37 0d be f5 2a d7 3d ca 71 d8 bd 5e 26 23 3e
       -0.1379084 0.1050624 -0.105685785 0.15932605
000090 b2 89 32 be bf 04 29 3e a3 2c e0 3d e6 69 76 bd
       -0.17435339 0.16505717 0.10946014 -0.060159586
0000a0 ce 6e 3c 3e 5d 3a 45 3e 12 51 1d be dc bc 99 bd
       0.18401644 0.19260545 -0.15362957 -0.07506725
0000b0 e2 3a 12 be 70 7d 08 3d 64 d2 26 be a3 12 18 be
       -0.14280275 0.03332275 -0.16291195 -0.1485086
0000c0 4d b1 8c bd 42 fe 16 be a1 08 33 bd ef ea 43 bd
       -0.06869755 -0.14745429 -0.0437094 -0.047831472
0000d0 01 e8 91 bd 98 d5 bd 3d 19 b7 a9 bd ad 6b 6e 3d
       -0.07124329 0.092692554 -0.08286876 0.058208156
0000e0 fc a6 a0 3c 57 e1 d1 bd 9d 79 63 3d 8a 3f 86 3d
       0.019610874 -0.10248058 0.0555359 0.06555088
0000f0 7d 4c 2f 3e 20 4e 2c bd 79 da be bd 52 de 12 be
       0.17119022 -0.042066693 -0.09319014 -0.14342621
000100 66 d8 1e be f6 70 c0 3d 20 3b 96 bb 86 d4 7f be
       -0.15512237 0.093965456 -0.004584685 -0.24983415
000110 6d 44 c9 bc 85 f5 1b be 91 a9 3e be 95 f2 28 3d
       -0.02456876 -0.15230377 -0.18619372 0.04124697
000120 ae a4 86 3d 79 45 1c 3e da b7 28 be 77 3b 64 3d
       0.06574379 0.15260877 -0.16476384 0.055720773
000130 5e d9 0f be 0a f6 3d be fe f4 4e 3e a7 46 1a be
       -0.14047763 -0.18550888 0.20210645 -0.15066014
000140 7a 9e aa bb 52 dd 0d be 68 3b c8 bd 1d 2a 43 be
       -0.00520688 -0.13853958 -0.09776956 -0.19059034
000150 4a b1 4e 3e 91 b9 6c 3e 24 bd 96 3d 03 c5 af bd
       0.20184818 0.23117663 0.073602945 -0.08582499
000160 b3 7f 26 3e 14 32 60 bd 6c ec d2 3d 47 6a 1e 3e
       0.16259651 -0.05473526 0.10299 0.15470229
000170 49 4a aa bc 0d bf 57 3e 2c 0b 99 3e a8 ed 39 3d
       -0.020787375 0.21068974 0.29891336 0.045392662
000180 aa 68 4a 3e aa 21 5c 3e 81 39 8a 3d 01 c7 3d 3e
       0.19766489 0.21497217 0.06749249 0.18532945
000190 de a1 79 bd a9 8e 1b be 5a e5 af 3d 73 15 52 3e
       -0.060945384 -0.1519114 0.08588667 0.20515995
0001a0 17 6f 8e 3d 3c 27 22 3e 86 c3 2a be 50 a8 6c be
       0.069547825 0.15835279 -0.16676149 -0.23111081
0001b0 79 3c bb 3d f6 ca 21 3e 44 2c 5e 3d 8a f0 4d 3e
       0.091423936 0.1580008 0.054241434 0.2011129
0001c0 64 19 e9 3c 5a 3f 33 be b4 55 d4 3d ae d0 b5 bd
       0.02845449 -0.17504635 0.10367909 -0.08877693
0001d0 70 84 00 be ff bd 10 39 47 be 4f 3e 8c 0f fa 3e
       -0.12550521 0.00013803689 0.20287429 0.48839986
0001e0 a1 df 6d be 5b 2e 25 be 54 ae d8 3d ee d4 0a be
       -0.23229839 -0.16130964 0.105801255 -0.13557789
0001f0 03 91 70 be e6 26 a3 3d 49 f6 e4 3b 61 a3 24 bd
       -0.23492818 0.07966404 0.0069873673 -0.040194873
000200 91 3f 4b bd 18 c7 97 bd 1a 91 fa bd 75 93 21 bd
       -0.04962117 -0.07411021 -0.12234707 -0.039447267
000210 26 c4 45 3d 39 68 39 be 06 a9 1b be b9 c7 02 3e
       0.048282765 -0.18106164 -0.15201196 0.127715
000220 85 97 08 3c 18 b8 d1 3d 49 97 32 3e c5 5a d8 3c
       0.008336906 0.10240191 0.17440523 0.02641047
000230 d4 86 6f 3e c0 4c 04 3d fd 14 95 3d 97 32 1c 3e
       0.23391277 0.032299757 0.07279394 0.15253673
000240 a2 38 3e 3e 76 3f 27 3d f5 9e e4 3d 8d 3d 0b 3e
       0.18576291 0.040832005 0.11163131 0.13597699
000250 d3 af 95 3e a1 f5 dd bd 8a df d0 bd 36 a1 0e 3e
       0.29235706 -0.108378656 -0.10198887 0.13928685
000260 1b 2e 0a 3d 50 25 01 3d 3c fb 09 3c 59 dd bc bd
       0.033735376 0.031529725 0.008421715 -0.09221906
000270 f4 db 14 be f3 d4 39 be 6b a2 fb bd c8 ef 36 bd
       -0.1453703 -0.1814764 -0.12286838 -0.044662267
000280 1e 97 b6 3d f9 0f 4c 3d 9b 7a 26 3e 63 88 5d 3d
       0.08915542 0.04981992 0.16257708 0.054085147
000290 7f bd 93 3e 7c a9 60 3e 90 b5 b8 3d 23 31 d9 3d
       0.28855512 0.21939653 0.09019005 0.10605075
0002a0 1b a8 89 3e 7b 8d 51 3e 7c 8f 6d 3e 5b 70 3d be
       0.26886067 0.20464127 0.23199266 -0.18499891
0002b0 ca 1a 17 be 7a a9 28 be 80 dc 65 3e 43 42 66 3e
       -0.14756313 -0.164709 0.22447395 0.22486214
0002c0 5d 05 bc 3d 35 2c 84 3c da 07 29 bd 48 41 e0 3d
       0.091807105 0.01613436 -0.041267253 0.109499514
0002d0 e2 22 ff 3b fe 4e 82 be d8 57 94 be a9 75 cc 3d
       0.007786141 -0.2545089 -0.2897327 0.099833794
0002e0 84 6f 04 3e 60 97 f8 bd 45 0b 26 3e 60 d4 67 3e
       0.12933165 -0.121382475 0.16215236 0.22639608
0002f0 8e 69 35 bd f9 6b 2b bd 6d d4 05 3e a1 03 8e 3c
       -0.044290118 -0.041851018 0.13069315 0.017335715
000300 a3 36 ed 3d 4a c3 64 3c 25 1e 59 3e 42 3d 03 be
       0.11582687 0.013962576 0.21202905 -0.12816337
000310 ee ce a4 3c 41 ef c2 bd 83 a3 72 bd dd ab 15 bd
       0.020118203 -0.0951829 -0.05923797 -0.036540855
000320 01 76 c9 3c 8a 16 3d 3c 6c 8f 1f bd db 84 6f 3e
       0.024592401 0.011541018 -0.038955137 0.23390524
000330 bb ee f4 3d 5d 2b 0c 3e 78 39 35 be f7 02 b5 bc
       0.11959597 0.13688417 -0.17697704 -0.02209614
000340 5e 4d 7d 3c 35 24 9b bd 5e 1b 0a 3e 5d ad 6d 3e
       0.01546034 -0.07575265 0.13487002 0.23210664
000350 de c6 ec 3d cb ff e0 bd 7c 47 45 bd 8c c8 ad bc
       0.115613684 -0.10986289 -0.048163876 -0.021213792
000360 bb 26 9b 3e 74 48 36 be 02 de df bd 49 b8 66 3e
       0.30302987 -0.17801076 -0.109310165 0.22531237
000370 c1 dd ea 3d a3 03 49 be 34 1d 8a 3e 10 60 5d bd
       0.114680775 -0.19630294 0.26975405 -0.05404669
000380 70 bf 28 be a9 bf ae 3d e1 90 8b 3e 35 0a a1 3e
       -0.16479278 0.0853265 0.2725897 0.314531
000390 9e 21 29 3d f6 e7 3c 3e 85 6f fe 3d 7b 5b f5 bd
       0.041291825 0.18447861 0.124236144 -0.11980339
0003a0 01 02 1e 3e 3a 2e 18 3d 71 a5 2a be 1a ee 3c be
       0.15430452 0.03715346 -0.16664673 -0.18450204
0003b0 3a 1c 35 be d7 69 65 3c 1f 7a 2d 3e 94 dd e4 3d
       -0.17686549 0.014002285 0.16941117 0.11175075
0003c0 8d 3d d7 3d b8 90 77 3e ff 02 ee 3d 80 19 ad 3d
       0.10509787 0.241763 0.11621665 0.08452129
0003d0 20 d8 43 be 84 3a 16 be ee c9 a5 3d 7e 55 6d bd
       -0.19125414 -0.1467076 0.08095156 -0.05794286
0003e0 23 28 54 be ad 86 7e 3d 45 2a 38 be 19 5e 96 3d
       -0.20718436 0.062140156 -0.17984875 0.073421665
0003f0 8b fe 08 be f6 ed f5 3c 1d a5 70 3d 4b a7 43 3e
       -0.1337835 0.030020695 0.058751214 0.19106786

StatefulPartitionedCall/lyt_6/sequential_18/conv2d_126/BiasAdd/ReadVariableOp:0 f4 [32]
000000 87 cf 15 3e d0 9c 4f be ef 9e 9b 3d 8a 8f 29 be
       0.14629947 -0.20274663 0.075986736 -0.16558662
000010 ff 78 98 3d 9b c8 50 be 27 96 48 bd 99 ec 76 be
       0.07444953 -0.20389025 -0.04897132 -0.24113692
000020 54 50 cd bd 61 0c 10 bd 5c a0 d0 bd 1f f0 04 3e
       -0.10025087 -0.035168055 -0.10186836 0.12982224
000030 5a 3d 0a 3e d9 3e f6 bb 34 a0 5f be fc 7b a6 3e
       0.13499966 -0.0075148162 -0.21838456 0.32516468
000040 46 c8 90 3d 8e f3 3e be a9 8d ef 3d d0 99 80 bb
       0.07069449 -0.18647596 0.116969414 -0.003924586
000050 b9 13 f5 ba c9 ed b5 3d da ea cb 3d 16 23 98 3d
       -0.0018697894 0.088832445 0.09956904 0.07428567
000060 99 e1 82 3d 36 b1 84 3e 0f 68 f5 3d 59 8d 80 be
       0.063906856 0.2591645 0.11982738 -0.2510784
000070 0f 84 6c bd 5c f4 40 3e a4 f5 f4 3c a0 7c c5 bd
       -0.05774313 0.18843216 0.029902287 -0.09642911

StatefulPartitionedCall/lyt_6/multi_head_self_attention_20/dense_95/Tensordot/ReadVariableOp:0 f4 [32, 32]
000000 fb 1b 3a be 80 d4 37 be 7a fb 0c bd d6 12 de bd
       -0.18174736 -0.17952156 -0.034419514 -0.108434364
000010 b1 12 27 be 50 24 55 be 2b e8 9b 3e 39 38 6a 3e
       -0.16315724 -0.20814633 0.30450568 0.2287301
000020 a1 a8 37 3e 24 dd 90 be 15 45 5f bd c6 d3 2d 3d
       0.1793542 -0.28293717 -0.05450924 0.04243829
000030 e9 e7 1a 3e 1a db 1b be fc eb 34 3e 53 e8 a0 bd
       0.15127529 -0.152203 0.17668146 -0.07856812
000040 e1 9e a5 be a4 da 21 3e d0 52 65 be 09 3e 80 3e
       -0.32347777 0.15806061 -0.22394872 0.2504733
000050 0a f0 31 be 56 72 37 3e b9 d2 a2 3b 3d 45 0a 3c
       -0.17376724 0.1791471 0.0049689678 0.008439359
000060 a1 be be 3c 3d cd 59 3e 2a 86 1d 3e d1 70 17 be
       0.023284258 0.21269698 0.15383211 -0.1478913
000070 7a a3 b3 3d c7 af 30 bc 82 06 2a 3e f2 3c e6 3d
       0.08771415 -0.010784096 0.16604045 0.11242093
000080 3a 3b 0e bd 64 16 9b 3d 66 f4 10 be 5a 00 18 3e
       -0.03472445 0.0757263 -0.1415573 0.14843884
000090 2d 83 8b bc 9c 24 0d be ef 5e 4d 3d aa 2a 36 be
       -0.017030323 -0.13783497 0.050139364 -0.17789713
0000a0 e5 19 f4 bc f2 18 79 3e 1d d0 97 3e 9f a2 0d be
       -0.029797504 0.24325922 0.29650965 -0.13831566
0000b0 ca 8f 0a 3e 86 31 71 bd a4 96 ed bd ee 2d 36 be
       0.13531414 -0.05888512 -0.11600998 -0.17790958
0000c0 cc be 39 3c 5f 04 82 3e 87 0b cc be 71 1c f7 bc
       0.011336993 0.2539396 -0.39852545 -0.03016493
0000d0 ed 91 60 be de 18 56 3d 98 78 ba 3d c2 f2 0e 3e
       -0.21930666 0.05226981 0.09105033 0.13959792
0000e0 35 48 52 3b 9a 51 32 3e 2f 03 99 3d b6 38 8b bb
       0.0032086496 0.17413941 0.0747131 -0.004248704
0000f0 bb c7 79 be f1 7a b3 3d cc 3a 97 be e2 84 71 3e
       -0.24392597 0.087636836 -0.29537046 0.23585847
000100 c6 40 9b be b8 d3 4a 3e aa 47 87 3e ea 8d 74 3d
       -0.30322856 0.19807327 0.26421863 0.059705652
000110 c6 2d f8 3d a8 23 7d bd 4f 97 82 3e d1 d5 65 39
       0.121181056 -0.061801583 0.25506064 0.00021918795
000120 a7 13 64 be 13 45 76 bd d8 9c 08 3d d9 5f ad be
       -0.22273122 -0.060124468 0.033352703 -0.33862188
000130 85 00 05 be cf b6 68 be b6 06 1e 3c 46 34 9a 3a
       -0.1298848 -0.22725986 0.009645155 0.0011764846
000140 72 2f 7f 3e b2 51 b3 3c 2e eb ad 3d b2 db a1 be
       0.24920443 0.021889541 0.084921226 -0.31612927
000150 fe 46 dd bd 4c 1c 20 bf 42 31 be 3d f5 77 ba 3c
       -0.10804556 -0.6254318 0.09286739 0.022762278
000160 22 3a 89 be 92 2c 44 3e 6c a1 b1 3e b1 45 ef bd
       -0.26802164 0.19157627 0.34693468 -0.116832145
000170 50 81 70 be a7 bc 1a be b0 85 4a 3e 56 4e 27 bd
       -0.23486829 -0.15111028 0.1977756 -0.04084619
000180 b2 ea 8c bd ac e2 f3 bc 8e f6 01 3e 13 1d 39 bd
       -0.06880702 -0.029771172 0.1269171 -0.045193743
000190 28 b6 d8 3d a0 13 07 bd 86 b6 e9 3e f1 b7 de 37
       0.105816185 -0.0329777 0.45647067 2.6550117e-05
0001a0 ad 40 75 be 50 3f d0 3e 97 de 07 3d 20 d1 22 be
       -0.23950453 0.40673304 0.033171263 -0.15900087
0001b0 c6 64 83 3b 74 16 21 bd e3 7a 22 be 31 22 5c be
       0.004009816 -0.039328054 -0.1586719 -0.21497418
0001c0 76 27 46 bd cd 70 15 be ac 31 0d 3e 5c a8 4e 3e
       -0.048377477 -0.14593811 0.1378848 0.20181412
0001d0 da 9b 19 3d e1 bb 00 be a5 3c b3 bc 40 8b 02 be
       0.037502147 -0.1257167 -0.021879504 -0.12748432
0001e0 e7 3a cd be 66 29 58 be 15 2a f4 3d d1 48 27 3e
       -0.40084 -0.21109542 0.11922089 0.16336371
0001f0 e6 94 e3 bd 03 9d cd bd 5c af c1 3e e6 74 47 3c
       -0.111123845 -0.10039713 0.378291 0.012173867
000200 f8 95 a3 be d7 82 ac bd 55 14 67 bd 9d b8 39 3e
       -0.31950355 -0.08423393 -0.056415875 0.1813683
000210 3c 98 e8 bd 70 a1 9c be c6 17 69 3e 5a 42 ed 3d
       -0.113571614 -0.30591917 0.22762975 0.11584921
000220 b2 82 af be 26 06 06 3e c6 5d 7e 3e 08 86 29 be
       -0.342794 0.13088283 0.24840459 -0.16555035
000230 b9 1d 09 3e 1e f6 12 3e e7 ad 35 bd a8 ce c2 3d
       0.13390245 0.14351699 -0.0443553 0.09512073
000240 0b b0 28 bd b5 b3 32 3e a8 df 6b bc 65 f9 f9 bd
       -0.041183513 0.17451365 -0.0143965855 -0.12205771
000250 91 ab c7 bd 0f bf e7 be 59 19 58 3e c0 ef 59 be
       -0.097495206 -0.45262954 0.2110342 -0.21282864
000260 28 94 ca 3e 57 4a eb bd 26 81 90 3d 88 b3 e1 3d
       0.3956616 -0.114887886 0.07055883 0.11020571
000270 5d ea 41 3b 2c 53 a0 be e2 8f 33 3e e0 93 9d 3d
       0.0029589154 -0.31313455 0.17535356 0.076942205
000280 d0 eb 2e be ca c7 48 be af 07 1c 3e 44 9a 92 bd
       -0.17082143 -0.19607463 0.15237306 -0.0715833
000290 54 96 9c 3d 14 93 5e 3e 40 1c e7 bd a2 bc 0d 3e
       0.0764586 0.21735793 -0.11284685 0.13841489
0002a0 de 3b e3 bb af c7 00 be a6 94 73 bd d1 12 2b 3e
       -0.006934627 -0.12576173 -0.059467934 0.16706397
0002b0 1f 3e c3 3e fb e8 f2 bc f9 c6 24 be be d4 48 3e
       0.38133332 -0.02965211 -0.16091527 0.19612405
0002c0 73 ce 26 3e 91 2b 16 be 6e 41 78 3e 2d bf 78 be
       0.16289692 -0.14665057 0.2424371 -0.24291678
0002d0 0b 9a a7 bd 7c 85 66 be 2a b3 82 bd 0a 72 80 3e
       -0.08183678 -0.22511858 -0.06381829 0.25087005
0002e0 b5 0e 66 3e 97 ca 35 3d b9 f3 35 3e 34 98 80 3d
       0.22466548 0.044382658 0.17768754 0.062790304
0002f0 78 6b 93 3c 24 5c ae be 81 a0 f2 3c b0 f4 57 3e
       0.017995581 -0.34054673 0.02961755 0.21089435
000300 ae f2 11 bd fb f4 bc bd 73 25 8c 3d 9e 8b 2d bd
       -0.035631828 -0.09226414 0.0684308 -0.042369477
000310 31 ff 09 3e 1f 94 49 3e 61 5c 81 3d 06 74 a8 bc
       0.13476254 0.1968541 0.06316448 -0.020563137
000320 2c 5d f4 3d 69 7f 54 be 71 6c 0d be 08 5e 2f 3e
       0.119318336 -0.20751728 -0.13810898 0.17125714
000330 1e 5f a4 be 73 29 ac 3d 41 1e 88 3d 06 48 17 be
       -0.3210382 0.08406343 0.066463955 -0.14773569
000340 7e 5e 18 3e cf c8 84 be 6d e4 b8 3d 49 94 78 3d
       0.14879796 -0.25934455 0.09027944 0.06068829
000350 75 50 41 3e e8 e8 26 be 51 21 b2 3d fd b3 e8 bd
       0.18878348 -0.16299784 0.08697761 -0.11362455
000360 11 65 2d 3e c0 0d 14 3d 63 28 81 3e bd 9b c8 3d
       0.16933085 0.036145926 0.25226125 0.0979533
000370 19 7d 7d 3e b1 1f a3 3d 5c 31 b1 3d 8f dc a2 3e
       0.24754752 0.07965029 0.08651993 0.31808898
000380 61 03 1f 3e ce 6b 9e 3e 83 62 bb bd 47 ed 1c be
       0.15528633 0.30941623 -0.09149649 -0.15324889
000390 53 e8 8d be 85 84 d6 3d 01 bd 73 be 0c 62 76 3e
       -0.27716312 0.10474495 -0.23802568 0.2406084
0003a0 18 1a 04 be 5b e8 af be b5 03 5b be 96 74 f9 bd
       -0.12900579 -0.3435696 -0.21388133 -0.1218044
0003b0 82 2b e2 3c 63 6f ca bd 29 6c c2 bd 82 e9 ad bd
       0.027608637 -0.098845266 -0.09493286 -0.08491804
0003c0 4e 90 a2 be d0 d3 8e be c2 77 c3 3e 84 17 80 3e
       -0.3175072 -0.27895975 0.38177305 0.2501794
0003d0 7b 7b a4 3d fa 24 b9 3e 6a 73 5c 3d d0 af 21 be
       0.080313645 0.36161023 0.053821005 -0.15789723
0003e0 ae 0d f6 bb 13 80 67 bd ec a9 04 be 96 78 40 bc
       -0.007508955 -0.056518625 -0.12955445 -0.0117475
0003f0 5e f3 8d be 3c 32 1e bc 13 d7 58 be 23 2e 4c 3e
       -0.27724737 -0.0096555315 -0.21175794 0.19939475

StatefulPartitionedCall/lyt_6/multi_head_self_attention_20/dense_95/BiasAdd/ReadVariableOp:0 f4 [32]
000000 4d 60 9f bd fd 15 75 bd 07 ea da bd 47 28 9d bd
       -0.0778204 -0.059835423 -0.106891684 -0.07673698
000010 17 0e 4e bc d7 dc f3 bd 86 86 44 bd 0b 8a e6 bd
       -0.0125766015 -0.11907356 -0.047979854 -0.11256798
000020 18 c1 df bd b3 a1 cb 39 53 a9 b8 bd 57 0e 04 3d
       -0.109255016 0.00038839653 -0.09016671 0.032240238
000030 a0 f2 10 3d 34 ff 58 bd b5 aa cf bd 63 14 88 3d
       0.035387635 -0.052977756 -0.10139982 0.066445135
000040 88 72 bc bd bc d8 ba bd a4 d7 0e bb e6 8a ef 3c
       -0.092015326 -0.0912337 -0.0021796012 0.029241037
000050 f6 f8 c0 3c 5d bd 21 3d 21 92 f3 bd 1e 8d a8 bd
       0.023556214 0.03948723 -0.11893106 -0.08230041
000060 f9 4d d3 3d ad 0d c4 3d 93 91 66 bd 18 85 b3 bd
       0.103176065 0.09572921 -0.056291174 -0.0876562
000070 da d0 d3 3d f2 aa 01 bd 1a e8 84 bd 76 9f ba 3d
       0.1034257 -0.031657167 -0.06489582 0.09112446

StatefulPartitionedCall/lyt_6/multi_head_self_attention_20/dense_94/BiasAdd/ReadVariableOp:0 f4 [32]
000000 6b da 8f 3d d0 e7 33 3d 59 20 d1 bd d8 04 a6 bd
       0.07024082 0.043922246 -0.10211248 -0.081063926
000010 3e b9 64 3b 57 17 6b 3d 29 c1 07 bd a9 70 09 3e
       0.0034900452 0.057395305 -0.033143196 0.13421883
000020 a7 30 b7 bc e6 e3 4d bc a5 6a d1 3a 53 fd 90 bd
       -0.022362066 -0.012566542 0.0015977217 -0.07079568
000030 4f 66 9b 3d 7e 8d cd 3d 39 3d 9e bc d1 20 c2 bc
       0.07587873 0.10036753 -0.019316303 -0.023697289
000040 07 24 93 bc 7d ba d0 bd 82 0f 19 be 17 1d 42 bd
       -0.017961515 -0.1019182 -0.14947322 -0.047391023
000050 2e b7 c7 bc 4b 32 62 3c be 56 95 bd f9 fc 10 bd
       -0.02437934 0.013805936 -0.072919354 -0.035397504
000060 fa 69 92 3d f6 e2 6b 3b 44 84 4a bc dd 02 fc bd
       0.0714912 0.0035993434 -0.012360636 -0.12305234
000070 b4 a4 02 bd 4b 69 80 3b 11 a0 02 be ac 2c 78 3d
       -0.031895354 0.003918802 -0.12756373 0.060589477

StatefulPartitionedCall/lyt_6/multi_head_self_attention_20/dense_93/BiasAdd/ReadVariableOp:0 f4 [32]
000000 d6 77 6f 39 8f 49 59 39 6a a0 08 b9 cd b3 36 b9
       0.00022837459 0.00020722135 -0.0001302973 -0.00017423854
000010 02 14 34 3a ac 9d 85 b9 0d 85 d2 b8 2b d2 a7 39
       0.00068694365 -0.00025485212 -0.00010038363 0.0003200931
000020 4b d6 1d 3b 72 11 8f 3a 8b 7a 8d 39 e9 bc b8 3a
       0.0024084027 0.0010915233 0.00026984917 0.0014094386
000030 1b f7 f3 3a d2 da 99 3a 57 53 ac ba 07 a7 07 3a
       0.0018613072 0.0011738187 -0.0013147396 0.00051747303
000040 f8 87 97 b9 1c 95 b5 37 90 dc c4 b7 e8 20 22 ba
       -0.0002890227 2.1646316e-05 -2.3467728e-05 -0.0006184713
000050 6c c7 9a b7 9f 15 84 b8 75 87 a0 39 37 60 d2 b8
       -1.8451094e-05 -6.298278e-05 0.00030618501 -0.00010031502
000060 02 32 13 3b 96 2e 72 3a aa d7 d2 b9 96 30 4f ba
       0.0022460227 0.0009238509 -0.00040215004 -0.0007903663
000070 c6 91 ea 39 c8 9c 1f 3b 6d 84 55 ba 0a 95 0b ba
       0.00044740568 0.0024354924 -0.0008145038 -0.0005324638

StatefulPartitionedCall/lyt_6/multi_head_self_attention_20/dense_92/BiasAdd/ReadVariableOp:0 f4 [32]
000000 8a 3b 00 bf 49 b2 de be 1c c9 1e 3f bd 16 8a be
       -0.5009085 -0.43495396 0.6202562 -0.26970473
000010 7c 69 05 bf 32 16 ad be 80 fc f4 be 16 77 00 3f
       -0.5211408 -0.33805996 -0.47848892 0.5018171
000020 a1 e6 c9 3e ff 11 d9 bc e2 ce 31 bd 45 20 39 3e
       0.39433768 -0.026497839 -0.04341019 0.18078716
000030 d7 db 13 3e 42 46 12 3d 6f 48 1b be ea 58 be 3d
       0.14439331 0.035711534 -0.1516435 0.09294303
000040 33 43 c1 be 25 a2 b5 be 3a 8a aa 3e 3a 94 03 3f
       -0.3774658 -0.3547527 0.33308583 0.5139805
000050 a6 4e 8d 3e 2a d6 bd be 8b d4 b6 3d 25 ce 81 3e
       0.27599066 -0.37077457 0.08927258 0.25352588
000060 89 ff ea 3c d9 fd c3 bd 08 af fb 3d 0e 96 d6 3d
       0.028686302 -0.09569902 0.12289244 0.104778394
000070 ef d5 c5 bc da 06 b0 3d 6c ce b1 3d 50 80 5d 3c
       -0.024149863 0.08595057 0.0868195 0.013519362

StatefulPartitionedCall/lyt_6/msef_block_6/se_block_6/dense_97/MatMul/ReadVariableOp:0 f4 [2, 32]
000000 b4 30 93 be 50 03 84 3d c5 3a d5 be db 67 d0 be
       -0.28748095 0.06445944 -0.416464 -0.40704235
000010 0c e6 c0 be f5 76 c7 bd ff 18 21 be 1b da 64 3c
       -0.37675512 -0.09739486 -0.15732192 0.013968016
000020 7c bd 83 3e 54 87 39 be c0 fd e8 3d 9a 1c 58 3d
       0.25730503 -0.1811803 0.11376524 0.05276165
000030 de f8 95 3e dd d1 96 3e 16 e6 90 bd 9f 7f 06 3e
       0.29291433 0.29456988 -0.070751354 0.13134621
000040 3f e4 c9 3e e8 71 f4 bd c9 fd a0 3e 56 20 a5 3c
       0.3943195 -0.119357884 0.31443623 0.02015702
000050 04 43 4a bc 5d 3d 33 3e 47 7b a1 3d 18 3c ab 3d
       -0.012345079 0.17503877 0.078848414 0.08361071
000060 a4 07 30 3e 4b d0 10 3e 91 e6 73 3e f6 a9 96 be
       0.17190415 0.14141957 0.23818423 -0.29426545
000070 20 31 6d bc 68 c8 ac bd fe 52 c1 be fd c3 fe 3c
       -0.014477044 -0.08436662 -0.3775863 0.031099314
000080 e6 b2 0c 3f 23 ee 8a 3e e5 91 32 3d 9a 9e 16 3e
       0.5496048 0.2713481 0.043596167 0.14708939
000090 72 32 cb be 8d cd d0 bc be 26 a2 3d 67 f3 db 3e
       -0.39686924 -0.02548864 0.07917546 0.4295914
0000a0 73 32 18 3e 4e 76 53 3d f7 85 52 3e dd 84 de be
       0.14862995 0.051626496 0.20558916 -0.43460742
0000b0 45 e5 4d be d5 04 11 bf be 04 1d 3e 84 12 81 be
       -0.2010699 -0.56648 0.1533384 -0.2520944
0000c0 e1 6b 92 3e 75 1d 2b be 3f 79 2e be 02 f0 44 3e
       0.2859793 -0.16710456 -0.17038439 0.1923218
0000d0 d7 09 35 be bf d7 f1 3b 95 96 9a 3d 29 47 c3 be
       -0.17679535 0.0073804553 0.075482525 -0.38140228
0000e0 7f 06 aa be ca 1f 67 ba 1a 53 60 3d 0c 8d 03 bf
       -0.3320808 -0.00088166876 0.05476675 -0.51387095
0000f0 2d 3b a1 3d f8 e0 1b bd b1 05 4e be 59 63 06 bf
       0.07872615 -0.038056344 -0.20119359 -0.5249534

StatefulPartitionedCall/lyt_6/msef_block_6/se_block_6/dense_97/BiasAdd/ReadVariableOp:0 f4 [32]
000000 88 17 0a 3d 77 a8 11 be 92 d3 8c 3e f2 d2 98 3e
       0.033713847 -0.1422442 0.27505165 0.29848439
000010 01 45 59 3e a9 4b b7 bd c9 26 fb 3e 74 f1 6d bd
       0.21217729 -0.08949978 0.49053028 -0.058091596
000020 de e6 46 3d 71 9a f2 bd fd 85 d7 3d d1 77 1d 3e
       0.048560016 -0.118458636 0.10523603 0.15377738
000030 c5 88 5b 3e 20 32 76 3e cb 5a fd be 32 6f 9a 3b
       0.21438892 0.24042559 -0.49483332 0.0047129625
000040 ee 4b ed bb 53 79 6e be b3 ef c3 3d 7e 6f 94 bd
       -0.0072417175 -0.23288469 0.095672034 -0.07247828
000050 c4 c3 45 3e 0d c1 8d bd 24 d4 bd bd 94 df 78 bd
       0.1931296 -0.06921587 -0.09268978 -0.060760096
000060 a1 2e 8e 3d 3d 33 5e 3b 6a f2 9b 3e b5 0f 29 3e
       0.069424875 0.0033905052 0.30458385 0.16509898
000070 d3 f0 21 be 7b 0d a3 be a3 0a b1 3d a6 3b 86 bd
       -0.15814523 -0.31846222 0.08644607 -0.06554346

StatefulPartitionedCall/lyt_6/msef_block_6/se_block_6/dense_96/MatMul/ReadVariableOp:0 f4 [32, 2]
000000 38 24 1e bd 5a b2 e2 3e 11 95 c7 bd 26 17 8a be
       -0.03860876 0.44276696 -0.09745229 -0.26970786
000010 3f 6f 6a 3e bd 2d 4a 3e 53 d1 70 be 90 7c 37 3d
       0.22894 0.1974401 -0.23517351 0.044796526
000020 a6 bb a8 3b d1 b5 ba 3d 0c 50 05 3e 9a b5 d5 bc
       0.0051493226 0.0911671 0.13018817 -0.026087571
000030 af 50 a0 bd 1b 3d a2 3d 5b 89 16 be d6 24 f7 be
       -0.07827889 0.07921811 -0.14700834 -0.4827029
000040 46 67 57 be 50 cf 30 be 83 75 09 3d e8 93 52 be
       -0.2103549 -0.17266583 0.033559334 -0.20564234
000050 32 4c 93 be 2a 45 0b be 79 82 b8 bd 03 dc 8f be
       -0.2876907 -0.13600603 -0.09009261 -0.28097543
000060 f5 68 b6 be c1 52 59 be 94 0c 47 3e 70 30 1a bc
       -0.3562695 -0.21222974 0.19438392 -0.009410962
000070 e5 ba 1f 3d eb 9e 92 3c a0 b1 e6 be f6 53 8b 3e
       0.038996596 0.017898044 -0.45057392 0.27212495
000080 a9 6d db be 94 91 e0 3d ca f3 de bd 6f 65 c5 bd
       -0.42857102 0.10965267 -0.10886343 -0.096384875
000090 1d 7d e0 3e 89 7c 5b 3e 0a 7f bd be 3b db a2 be
       0.43845454 0.21434225 -0.37010986 -0.31807885
0000a0 8a b1 b8 be 4a ab 49 bd b4 83 51 3e 40 d3 5c bd
       -0.36072952 -0.04923562 0.20460397 -0.0539124
0000b0 5f c4 3d 3e 9f 8d 2e 3e 89 34 5a 3e 95 3f 78 be
       0.18531941 0.17046212 0.21309103 -0.24243005
0000c0 5c 26 c9 3e 70 2a 2a 3d ce e4 70 be 61 4b d1 be
       0.39287078 0.041544378 -0.23524782 -0.40877822
0000d0 87 02 50 3d ca cd 58 be cf 71 76 bd 6d 04 19 3e
       0.05078366 -0.21172252 -0.06016713 0.14943095
0000e0 37 b7 aa 3e 98 e8 a7 be 8b eb d8 3d d1 27 1f be
       0.33342907 -0.32794642 0.10591801 -0.15542533
0000f0 39 c8 d9 3c c2 f2 aa be 18 59 dc bd f8 6f 3b 3e
       0.026584731 -0.33388335 -0.10759181 0.18304431

StatefulPartitionedCall/lyt_6/msef_block_6/se_block_6/dense_96/BiasAdd/ReadVariableOp:0 f4 [2]
000000 14 d7 55 bd f6 cb ab 3c
       -0.052207068 0.02097128

StatefulPartitionedCall/lyt_6/msef_block_6/layer_normalization_6/mul/ReadVariableOp:0 f4 [32]
000000 91 c9 90 3f 46 e0 81 3f 69 63 5b 3f 3c ea 7b 3f
       1.1311513 1.0146568 0.8569856 0.9840429
000010 f2 a1 8a 3f f7 1a 7f 3f ab a3 9f 3f ef 42 8f 3f
       1.0830672 0.9965052 1.2471823 1.1192302
000020 08 0a 72 3f 99 52 6d 3f ef 8d 8b 3f fb 9b 7b 3f
       0.94546556 0.9270416 1.090269 0.9828488
000030 fe c4 68 3f d7 a8 83 3f 13 4f ab 3f 93 59 76 3f
       0.90925586 1.0285901 1.3383507 0.9623043
000040 8a 63 88 3f 43 c1 78 3f 32 05 8d 3f 76 29 91 3f
       1.0655377 0.97169894 1.101721 1.1340778
000050 a0 f9 85 3f ef e2 61 3f 59 72 8d 3f 61 1f 8b 3f
       1.0466805 0.882369 1.1050521 1.0868951
000060 80 63 90 3f af 1f 86 3f 47 58 67 3f 1d dc 71 3f
       1.1280365 1.0478419 0.90369076 0.9447649
000070 45 4e 8c 3f 0d c6 81 3f f7 3d 76 3f 67 93 6c 3f
       1.0961386 1.0138565 0.961883 0.9241242

StatefulPartitionedCall/lyt_6/msef_block_6/layer_normalization_6/add/ReadVariableOp:0 f4 [32]
000000 52 74 22 3d db c4 a6 bd 39 e9 10 bd 4c 72 0d 3a
       0.039661713 -0.08143016 -0.03537867 0.00053957547
000010 31 5a 28 be 30 ce 7b bd c7 4e ab bb ae c4 53 bd
       -0.16440655 -0.061475933 -0.005227897 -0.05170124
000020 5f b4 13 bc 28 98 90 3b 00 71 26 be e4 2f 92 3c
       -0.009015172 0.0044126697 -0.16254044 0.017845102
000030 84 b9 87 3c 25 90 8e 3d 69 e6 98 3e 67 2d a8 bc
       0.016567953 0.06961087 0.2986329 -0.020529462
000040 4a 1b 9f 3d 5a cd 99 3d 1f c8 45 bd b5 9c 38 3d
       0.07768877 0.07509871 -0.048286553 0.045071322
000050 33 4e 05 be 91 6c 83 bc 8f d3 76 3c 28 6c f0 bd
       -0.13018112 -0.01604298 0.015065088 -0.11739379
000060 a6 6f 72 3e b2 9e 3b bc 84 6b 18 bc e9 c0 5b bc
       0.23675403 -0.01145141 -0.0093029775 -0.013412693
000070 31 f3 7b bd 8c 8a df bd 01 c1 f6 bc c8 f8 8a 3d
       -0.061511222 -0.109150976 -0.030121328 0.067857325

StatefulPartitionedCall/lyt_6/msef_block_6/depthwise_conv2d_6/BiasAdd/ReadVariableOp:0 f4 [32]
000000 32 e7 26 be 4a 64 63 3e a7 27 e6 3a aa aa 1f 3e
       -0.16299132 0.22206226 0.0017559425 0.15592447
000010 28 07 9c be ad 51 ff 3b 20 d1 7d 3d ad 47 84 3e
       -0.3047421 0.007791719 0.061967015 0.25835934
000020 f4 35 d9 bd f9 a2 58 3d 10 ef 46 3e 67 75 83 be
       -0.10605994 0.052889798 0.19427133 -0.25675508
000030 f0 bb dc bd 71 0f 7b bd a4 92 9a 3e 37 d3 cb 3c
       -0.10778034 -0.061294023 0.30190003 0.024880989
000040 13 21 1b 3e ad 71 6c be 68 3b cd bd d9 8b 56 3e
       0.15149336 -0.23090239 -0.100210965 0.20951785
000050 30 59 ce be 88 47 97 3d 74 b1 5d b9 74 91 92 be
       -0.4030242 0.073866904 -0.00021142309 -0.28626597
000060 35 1c 03 bf e9 a1 bd 3c 40 21 98 3d 0c 65 95 bd
       -0.51214916 0.023148494 0.07428217 -0.07294664
000070 89 79 da bd cb 57 2e 3c 67 47 80 3d 92 5b de bd
       -0.10667712 0.010641049 0.06263619 -0.108573094

StatefulPartitionedCall/lyt_6/kernel:0 f4 [3, 3]
000000 87 16 99 3e 2e ac 16 be 07 6f 1d 3f a2 45 16 3f
       0.299 -0.14714119 0.6149754 0.587
000010 a9 e6 93 be c1 d4 03 bf d5 78 e9 3d c0 3c df 3e
       -0.28886917 -0.5149651 0.114 0.43601036
000020 2e d2 cc bd
       -0.10001026
