weights/lyt_net_lolv1_800x400.onnx (onnx, 303943 bytes, 62 tensors)

scales__505 f4 [4]
00000000: 0000 803f 0000 803f 0000 0040 0000 0040
1.0 1.0 2.0 2.0

const_fold_opt__1001 f4 [32, 1, 3, 3]
00000000: 6365 0b3e 2be8 aabd 3110 e2bc 5de5 653c
00000010: cb38 1d3d 4bf1 cebd 55c6 243e c224 f03d
00000020: 2bd1 683d bad2 263b 9ba5 fbbd b37e 12bc
00000030: fa84 ddbd 1692 203d 6976 e3bc b7ed 023d
00000040: 2d97 55bd 2d83 db3d c424 a93d ed63 8b3c
00000050: 06aa d7bb e113 e73d 6f50 173e fda3 67bd
00000060: f7a3 acbd 9df7 d63c d87f 80bd 8cbc eebc
00000070: 3a0f 113d 4d07 d6bc 4b65 d1bd 5770 e4bd
00000080: fb46 8fbd b755 823d 5097 dfbd fbfd 85bd
00000090: 72d4 4ebd da88 33be a8cd 02be fbb5 153d
000000a0: 4e5a 453e 939e a8bc 83dc 9ebd 131c 5c3e
000000b0: 3914 b8bd 4230 bb3d 6663 d7bd 262d 0dbd
000000c0: 9d17 e2bd 5a19 f3bd 2f5f 853d 2325 f13b
000000d0: bf64 17be 8ab6 a3bc 257e f5bd 008d 00bd
000000e0: d7e5 063d 7d97 1d3e a761 353e bb5e a33d
000000f0: c2b3 f03c cddc a23d 2af3 83bd 7ed4 a0bd
00000100: 6050 94bd ae16 a23b 6d4d 93bb ec42 0bbe
00000110: 962e 85bd 9a3b 37bc fa5f bd3d 6e42 a1bd
00000120: 1127 883d f79c 243e 43dd 3b3d 59f7 e5bc
00000130: c149 b6bb 84f7 b43d 8b3b 32bd 17c5 d03d
00000140: 064d a83d 144a 113d 2efe c1bd 4427 383e
00000150: b739 1b3d 054c 0f3e e5de de3d 48f5 093e
00000160: 5006 1c3d 64b3 2dbd 81b5 5ebd 07d8 7bbd
00000170: e72d 0f3c 1c8f 9abc 1df0 a9bd b45d cdbd
00000180: 4004 3cbc 6d9b bfbd 4214 a93d 3de5 e6bd
00000190: 3357 29be 0970 ee3c 41fd ab3d f584 29bc
000001a0: fc1f 55bd 982f eebc c2ca 66bd 3099 02bd
000001b0: 72d9 60bd 30a0 0cbc 7cbe 6abd 0fc1 c3bc
000001c0: c971 47be 55e8 0bbe ff20 88bc 185d 79bc
000001d0: 080d 143d d180 283e ec99 69be 3662 12be
000001e0: 6051 8f3a 84e9 4dbe fb24 a5bd 9cba 293e
000001f0: e9b9 e8bd 3869 1c3d b225 3abd e1ed c63c
00000200: 989b b43d 081c 123e e628 a43d a350 1c3d
00000210: 93ef e3bd b84c ae3d 612a b83d 989a 2abd
00000220: 6e5f 4f3c 6553 283d 9590 0d3e c6ea 163e
00000230: 86cd a43d bd00 943d a8e7 7fbd 2ef1 a8bd
00000240: 5efc db3d 9e1c 583e a04d 683e b796 053e
00000250: deec e23d feb2 763e 4130 b3bd 0580 a03d
00000260: 3a3a 32bd a8d2 f4bd d542 1cbe 41a1 57be
00000270: bf53 70bc 9c26 38bd ec40 f8bd c691 1fbe
00000280: 69e4 88bd 2c75 15be 3fc0 043d c364 9c3c
00000290: 86ce 2d3d 6e6f b2bc f0e3 38bc a27d 953c
000002a0: f4a2 653d 87bb fb3d 767f 713d ff7d 8bbc
000002b0: 3fea 823d d7f1 243d a3d7 a23e 1a9f 593e
000002c0: 97c1 8abd ae42 6a3e 8933 343e e486 f73a
000002d0: f150 ce3d 6668 8b3d d0f5 153c b60d d7bd
000002e0: 1d6c 063c 4e3a 093d ff4c c03d f872 df3d
000002f0: ce78 4bbd 4693 afbd 2004 513d 5499 1abd
00000300: bec4 e1bc a9df 663d fe64 51bd 1675 363d
00000310: ba5f 3ebd f79e af3d 873b 37be 852f d6bd
00000320: b4fd 5d3b fa58 0bbe 1aa3 733d 5d7a 75bd
00000330: 0608 53bc b74b 093e 86e5 f03c ba7f c1bd
00000340: e06b 8dbd 6755 15bd 76c3 1c3e 680b 173e
00000350: 18e7 ae3d 9de6 61bd 6012 b13d 1420 cf3c
00000360: f162 5bbd d89e b13d 60db 21be fb6e 0f3e
00000370: 916d 21bd 63cb 1abe 278e d6bd e07f 1fbd
00000380: c1f6 c3bd bfc5 033e b844 9f3d bc03 a5bd
00000390: 9c6f 0ebc 1aee 1a3c 60f5 13bc fd98 f8bd
000003a0: 18d9 b1bc 5e25 8c3d c0fc 613d c6bf 52bd
000003b0: b571 fbbc 8f8e 2bbe 4114 fabc 24bf 3ebd
000003c0: 37ac 523d 678d 1bbe da93 cbbd 3af3 bc3d
000003d0: 3fea 08bc 9c45 e4bd 0f34 ddbd 1cd9 8b3d
000003e0: f57d 2d3d d4b3 ccbd 2399 a3bd 9de5 4c3d
000003f0: 45e0 efbc f64b 1abd 373d 1f3e c399 883c
0.13612895 -0.08345064 -0.027595611 0.014031735 0.03838424 -0.10104617 0.16091283 0.11725761
0.056840103 0.0025455193 -0.12287446 -0.00894134 -0.10816379 0.03920182 -0.027766423 0.031964984
-0.052146126 0.10718379 0.082589656 0.017015422 -0.0065815477 0.112830885 0.14776777 -0.056552876
-0.08429711 0.026241118 -0.06274384 -0.02914264 0.03541491 -0.026126528 -0.10224398 -0.111542396
-0.0699596 0.06364005 -0.109175324 -0.065425836 -0.050495572 -0.17532673 -0.12773764 0.036550503
0.1927273 -0.020583427 -0.07756903 0.21495084 -0.08988232 0.09140064 -0.105170056 -0.034466885
-0.1103966 -0.1187007 0.065122955 0.0073591634 -0.14784525 -0.019984502 -0.11986951 -0.031384468
0.032934036 0.1538982 0.17713033 0.07977053 0.02938259 0.07952271 -0.06442864 -0.0785303
-0.07241893 0.0049465513 -0.004495314 -0.13599747 -0.06503026 -0.011183644 0.09246822 -0.078739986
0.06648076 0.16075502 0.04586531 -0.028072046 -0.0055629914 0.08836272 -0.043513816 0.10193842
0.08217816 0.035471037 -0.09472309 0.17983729 0.037896838 0.13993843 0.108823575 0.13472474
0.038091958 -0.04240741 -0.054372314 -0.061485317 0.008738971 -0.018867068 -0.08297751 -0.10027638
-0.011475623 -0.09355817 0.08255817 -0.112741925 -0.1653717 0.029106157 0.08397914 -0.010346641
-0.052032456 -0.029075429 -0.05634571 -0.031884372 -0.054894872 -0.008583114 -0.057310566 -0.023895768
-0.19477 -0.13662846 -0.016617296 -0.015219949 0.03614524 0.1645539 -0.22812623 -0.14295277
0.0010934286 -0.2010861 -0.08063694 0.16575092 -0.113635845 0.038186282 -0.045446105 0.024283351
0.0881874 0.14268506 0.08015613 0.03816284 -0.111296795 0.08510727 0.08992458 -0.04165134
0.01265703 0.041095156 0.13824685 0.14737996 0.08047013 0.07226703 -0.062476784 -0.082491264
0.107414946 0.21104667 0.22685862 0.13045774 0.11080335 0.24091718 -0.08749438 0.07836918
-0.04351256 -0.11954242 -0.1525987 -0.21057607 -0.014668404 -0.044958696 -0.12121758 -0.15582952
-0.06684191 -0.14595479 0.032409903 0.019091016 0.042433284 -0.02178165 -0.011284813 0.018248383
0.056063607 0.122916274 0.058959447 -0.017027853 0.06392335 0.0402697 0.31805143 0.21252099
-0.067752056 0.22876999 0.17597784 0.0018884805 0.10074032 0.06807022 0.009152845 -0.10500662
0.008204487 0.03350287 0.09389686 0.109106004 -0.049675755 -0.08573012 0.051029325 -0.03774388
-0.027559634 0.056365643 -0.051121704 0.044545256 -0.04647801 0.08575242 -0.17893802 -0.104582824
0.0033873143 -0.1360816 0.059481718 -0.059931148 -0.012880331 0.13407789 0.02940632 -0.0944819
-0.06905341 -0.0364584 0.15308937 0.14750445 0.085401714 -0.05515157 0.08646083 0.02528385
-0.053561155 0.08672875 -0.15806341 0.1400718 -0.03941113 -0.15116648 -0.10476332 -0.03894031
-0.09568549 0.12868403 0.07776779 -0.08057353 -0.008693602 0.009456182 -0.00903067 -0.12138555
-0.021709964 0.06843065 0.05517268 -0.05145242 -0.030693868 -0.167536 -0.030527236 -0.046569005
0.051433768 -0.1519066 -0.0994031 0.09226079 -0.00835663 -0.111460894 -0.10800945 0.0682852
0.04235645 -0.09995237 -0.07988193 0.050023664 -0.029281745 -0.0376701 0.15550695 0.016674882

StatefulPartitionedCall/lyt_3/sequential_9/conv2d_69/Conv2D/ReadVariableOp:0 f4 [32, 1, 3, 3]
00000000: 6316 043e e356 403d 05cd 2bbe 8221 473e
00000010: 1a27 94bd 5e50 9bbd d1bf 303d a5ec ab3c
00000020: 6095 9c3d bb2a c53d c50b 023e dbf8 1c3e
00000030: afdd bfbd 12fe 07bd 6974 483d 9980 12be
00000040: 1be0 5abe 3b92 9a3c d1cf 9fbc d666 2dbe
00000050: 9ca4 94bc d9a2 c13d ee8f 163e 4345 1bbe
00000060: c3ff f43b c41f 9bbc a76a 383e f9b2 0a3d
00000070: 2d13 fabd 2ebc 0cbe 69f4 10be 2d30 a03d
00000080: 0a1a 00be f162 d63d e32b e0bd f150 ef3d
00000090: 43dc fbbd 3597 063e a517 023e 5d6b 1bbd
000000a0: d5fd d13d f310 413e b83a fbbd 931e e1bd
000000b0: 607c d9bd 30bb 4e3d ce94 31be d5e2 18be
000000c0: e924 11bd 4ec5 03be 9830 6abc 779d b4bc
000000d0: f4b4 6fbd 0499 f23d 00ed 58bd 1585 eb3d
000000e0: d9af 5b3d 466c d0bd 54b9 ac3d 4c99 b13d
000000f0: 3406 d33d 152d 243d 775b ffbc 671f 08be
00000100: 9718 06be d78c bc3d 4b83 6c3c 1d87 5ebe
00000110: b355 85bc 77d9 10be 6ca5 36be cdaf 013d
00000120: c44d 1e3e 980b 093e 4b27 2cbe 1fdd 1d3e
00000130: 67e1 cfbd ce87 27be 118c 4d3e 7ed8 ccbd
00000140: b214 f53c aa56 70bd 2e3e fd3d 5529 b53d
00000150: 2884 813e 6eb1 d03e 7d0b b33e 3a38 463e
00000160: ce38 af3e e610 35be 71f2 a63d d2de 123d
00000170: a105 debd 7a12 473d a6d2 2f3e 64c2 9bbd
00000180: 4739 933d d031 a23d 1d2b f83c f9a0 363e
00000190: f032 73bd f34a 13be 76a3 ce3d fb0e 423e
000001a0: 234d bd3d 4d41 0e3e 31fd 22be 13b2 2dbe
000001b0: af9f 65bd 122d 3d3e d484 8a3d e352 213e
000001c0: 2dc4 b53d 90cb ecbd 10c6 d23d 3887 10bc
000001d0: 1bbe a7bd 503d fc3b 70ce 3f3e 5642 313e
000001e0: 38f0 34be 1e5d ffbd f378 98bc 6164 773b
000001f0: 5826 37be a2b7 e23d b122 dd3b 9a59 ccbc
00000200: 8a26 55bd db91 31bd 2542 abbd 258a dcbb
00000210: 3f62 9b3d 58cd 23be 3809 edbd d960 a83e
00000220: 62f8 0abd b025 153d 1a9c 343e 2e26 fdbd
00000230: 121e 923e 3757 babb 011b a7bb 50b2 553e
00000240: 71c7 853e 7f74 803e 68fc 873e eaee 193e
00000250: 793f 8d3e e3dd 49be da9c 0bbc 9fb0 943d
00000260: 17e5 e6bd 42b3 b83c 51f4 a9bb 1c08 d8bd
00000270: 29f6 04be 5130 23be 0f3d e4bd b6fd 0dbd
00000280: 928e a03d 38b2 413d 97dd 983e 6f97 16be
00000290: dad9 0f3d 9eae 943e dc53 e6bd e219 22be
000002a0: 7be9 9a3e 9850 96bd 7fde aebd 9017 38be
000002b0: b985 17be c962 3dbe a660 063e 8a2f 073e
000002c0: b890 aa3c 3fb5 c33d 3920 88bc 2bdf 2b3e
000002d0: e6ae b63b 82f4 e4bd 3968 a6bd 4aee 603c
000002e0: 1fec 5a3e 294c a43d 34a9 8cbc b1c4 d53d
000002f0: 2ef9 7ebb c0c8 d9bd 8dff 173e 452c 0ebd
00000300: 4de9 893d 0910 d9ba 9777 383e 4d7f 21be
00000310: 6e34 ae3d b87b d1bd 4ad2 ddbb c59e 0cbd
00000320: 2ee5 1c3d 20a7 293d f413 b4bd c14a 5a3e
00000330: dda6 083e 7b9a ab3d d1ce c6bd 0064 b3bc
00000340: e01f a53d 29cf 6cbd 5daf d13d 6712 553e
00000350: 4258 763d 9fd6 2cbe cb0a a8bd 3d86 febd
00000360: ce75 843d 0139 2dbd 073c 4e3d e826 15bd
00000370: 43ac 533e ac44 8dbd f827 473d c49e 443d
00000380: 9cbd 90bd f2cd 813e 3fcb a73e 02ea 8b3e
00000390: e024 333e b35b 563e 1513 07be 4bb4 d43b
000003a0: 6b8f d73d 5357 06be 0c3a 1fbe b14d 15be
000003b0: 5ee1 2fbe e72d d8bb 8922 5c3e 0fb5 c63d
000003c0: db0a 08bd a0a3 433e c1e6 263d cb8f 503d
000003d0: 6730 3dbe 556b 14be 1f48 673d be5f 40bd
000003e0: 6153 3abe 3401 693d 5f1e 37be 882e a93d
000003f0: 80fc 2dbe ce2a 213e 14c4 ad3d 26de f53c
0.12899165 0.04695786 -0.16777427 0.19446376 -0.072340205 -0.07583688 0.04315168 0.020986864
0.076456785 0.09627291 0.12699802 0.15329306 -0.09368455 -0.033201285 0.048939142 -0.14306869
-0.21374552 0.018868556 -0.019508274 -0.1693376 -0.018144898 0.09454889 0.14703342 -0.1516314
0.0074767782 -0.018936045 0.18009435 0.033862088 -0.12210689 -0.1374366 -0.14155735 0.07821689
-0.12509933 0.1046809 -0.10945871 0.1168536 -0.12297871 0.13143618 0.12704332 -0.037944186
0.10253493 0.18854122 -0.12267059 -0.1099216 -0.10619426 0.050471485 -0.1734192 -0.1493028
-0.03543559 -0.12868235 -0.014293812 -0.022047741 -0.05852218 0.11845592 -0.052960396 0.11499993
0.0536345 -0.101769015 0.08433786 0.08671817 0.103039175 0.040082056 -0.031171544 -0.13293229
-0.13095318 0.092065506 0.0144356 -0.21731229 -0.016276216 -0.14145456 -0.17836541 0.031661797
0.15459353 0.13383329 -0.16811864 0.15416382 -0.10150414 -0.16360399 0.20072962 -0.1000223
0.029917095 -0.0586764 0.123653755 0.08845774 0.2529614 0.40760368 0.34969702 0.19357386
0.34223026 -0.17682227 0.08151711 0.03585703 -0.108409174 0.048601605 0.171702 -0.076054364
0.07188659 0.07919657 0.030293996 0.17834844 -0.05937475 -0.1438406 0.100897714 0.18951027
0.09243228 0.13892098 -0.15916897 -0.16962461 -0.05606049 0.18474224 0.06763616 0.15754275
0.08875308 -0.11562264 0.10291684 -0.008821301 -0.081905566 0.0076977387 0.18731093 0.17310461
-0.17669761 -0.124689326 -0.01861236 0.003774904 -0.1788572 0.110701814 0.0067485203 -0.02494507
-0.052038707 -0.04335199 -0.083622254 -0.0067303353 0.07587098 -0.15996301 -0.11574024 0.3288639
-0.033928283 0.036412895 0.17637673 -0.12360798 0.28538567 -0.0056866664 -0.0050996547 0.20868802
0.26128724 0.2508888 0.26559758 0.15032545 0.27587488 -0.1971355 -0.008521283 0.0726025
-0.11274164 0.022546414 -0.0051865955 -0.10548422 -0.12984528 -0.159364 -0.111444585 -0.034665786
0.07839693 0.047289103 0.2985656 -0.14706205 0.03511987 0.29039472 -0.11246464 -0.15830186
0.30256256 -0.07339591 -0.085385315 -0.17977738 -0.14797105 -0.18494715 0.13122806 0.13201728
0.02082096 0.09556054 -0.016616927 0.1678435 0.0055750487 -0.11179449 -0.08125348 0.013728688
0.21379136 0.08022339 -0.017170526 0.104379065 -0.0038905847 -0.10633993 0.14843579 -0.034710187
0.06733952 -0.0016560565 0.1801437 -0.15771218 0.08506094 -0.102286756 -0.006769453 -0.034331102
0.0383045 0.04141915 -0.08792868 0.21317579 0.13344903 0.08379074 -0.09707416 -0.02189827
0.0806272 -0.05781475 0.10238526 0.20807801 0.060142763 -0.16878746 -0.082051836 -0.12427948
0.06467782 -0.04229069 0.050350215 -0.036414057 0.20671181 -0.06897864 0.0486221 0.048002973
-0.07067415 0.25352436 0.32772252 0.2732697 0.17494535 0.20933418 -0.13190873 0.006491219
0.10525402 -0.13119249 -0.15549487 -0.14580418 -0.17175815 -0.006597269 0.21497549 0.09702503
-0.033213478 0.19105387 0.040747408 0.05091838 -0.18475495 -0.14494069 0.056465264 -0.046966307
-0.18195869 0.056885913 -0.1788268 0.08260828 -0.16990852 0.15738985 0.084846646 0.030013155

StatefulPartitionedCall/lyt_3/sequential_9/conv2d_69/BiasAdd/ReadVariableOp:0 f4 [32]
00000000: 30d5 373e c3ec acbd f990 cb3c 77e5 5abe
00000010: 803e 6f3d e8f2 50be 8d84 433e 87d8 4bbe
00000020: abc2 42be 154d bf3c 4da1 003e 9023 353e
00000030: f5bd 063e 41ab d13c 7cfc 13be b352 903e
00000040: d8f4 dcbd 7424 04be 740d 0abc 9a55 133d
00000050: cc03 5d3e 685f 58bb 815e e43d 6464 863c
00000060: 52db 003e 2660 93bd f2bd 533d 7def 44be
00000070: 7b14 bfbd 6531 ac3e 2714 083b ca09 9d3d
0.17952418 -0.08443596 0.024849402 -0.21376596 0.058409214 -0.20405161 0.19093533 -0.19906817
-0.19019572 0.023352185 0.12561531 0.17689347 0.131584 0.025594356 -0.14451784 0.28188094
-0.10788888 -0.12904531 -0.008426059 0.035970308 0.2158348 -0.003301585 0.11150838 0.016405292
0.12583664 -0.07196073 0.051694818 -0.19231983 -0.09330078 0.33631435 0.0020763965 0.07667883

StatefulPartitionedCall/lyt_3/sequential_11/conv2d_71/Conv2D/ReadVariableOp:0 f4 [32, 1, 3, 3]
00000000: 0cf1 1abe ddb5 a13d 0792 b33d 511b 85be
00000010: cab8 273a 89d2 d73d 5279 2abe eb63 463d
00000020: 26b1 093e 3abf 273e 42ed 8bbd 25d0 19be
00000030: 361d 463e 5a4d 81bd 923a 5cbd bfa5 233e
00000040: 7e4c 25bd 4b56 65bd 95a5 ed3d d446 1b3e
00000050: 08a6 c63d c8a7 093e 99a0 333e 78f1 b3bc
00000060: b97e af3c 1db0 503d c665 83bd 1fa9 8cbd
00000070: ba35 e9bd ef82 cf3c 8db6 b53c c2d2 6f3d
00000080: 5baa 3a3e 97ba db3d 81eb b0be d89b 233e
00000090: 8cd3 a83c 56a7 1f3e 0d48 0a3d 611f 1b3d
000000a0: a219 c73d 6c67 ee3d ba47 a23c ed89 0f3d
000000b0: 5c66 f43d 541d 823d 95d1 57bc cbf7 bb3d
000000c0: c76e 1abe 4b86 323e b7a1 9cbe 2c9a adbd
000000d0: 61e1 1e3e 3f88 d83d 6f8a 35be aecd edbb
000000e0: 2e8f 4e3e 4cb0 86be 6162 c8bc daff 973e
000000f0: ee4b 2cbe 79d3 02bd aa8c 4c3e 548e 05be
00000100: ead8 5b3e 4f84 163e 894a dcbd 5678 603d
00000110: 9b3b 2dbe 9345 10be 7401 2e3d 9805 0d3e
00000120: 7bb6 7abd 4d28 1d3d 222f 89bd 90eb b6ba
00000130: 7614 0dbe 59f3 28be 53fd 31be c698 babd
00000140: 0f38 cbbc 357d d73d f8c4 9abc 0cba eb38
00000150: f2ec be3c 1af2 febb e4ea 1a3e 02f0 cb3d
00000160: fc5e 733d bbf5 94bd 59fb 883d a8c3 a0bd
00000170: ca74 e2bd 2abf 7cbc 7938 213e 693a aa3b
00000180: 2e6b 69bd 852e 9bbd 9086 84bb df1c 213e
00000190: 69e5 67be 97d0 31be e08e 963d c775 e53c
000001a0: 7afb 2d3e 353a 163e dd87 d53c 0a29 f8bd
000001b0: 3ccf 9fbc 00b1 0ebe e240 cdb9 1dae 87bd
000001c0: c162 93bd 5dcc 5cbd 80c5 ad3c 2229 00be
000001d0: 96de b9bd 3411 04bd 0ae0 8fbd 26b8 67bd
000001e0: ff3d 79bd adde 5dbd 3ef7 2dbd aa8c 85bc
000001f0: 6fe3 62bd 6aff a93c f6bd 113d d9f6 56be
00000200: a7c9 62bd 1e3e c1bd 875f d2bd 5716 d9bd
00000210: c493 2dbd c9df 01be 7e80 d6bd d240 343e
00000220: ffc4 373e 742d 713e b036 c6bc bb36 1abd
00000230: ab34 453d 49f6 17be 38b8 43be 431c 29be
00000240: 97b4 6e3c 5658 643e d422 5a3e 8c7d 48bd
00000250: cf72 47be 5c60 dfbd 220a a8bc d897 8cbc
00000260: c6d0 20bd 8c24 0abd ccb9 953d d3c4 06bd
00000270: a7ce fa3c 9189 113e f812 c63d c6ae b3bd
00000280: 29d6 0d3e 8b80 c63d 4c3b 47bd b7fb 3139
00000290: 07db 01be b0c0 d6bc 6991 283d a3e2 4bbd
000002a0: c17a 8abd 9740 76bd 63e0 06bc 1eea 6fbe
000002b0: e983 fabd 0c9a ab3e 11b0 dc3d ecee 06bd
000002c0: ab3e 313c d859 393d cf6c 213e e844 62be
000002d0: adba 443e 9aa4 8d3e 401f b0bd a24b 36be
000002e0: 15ea 043d f752 5a3d ca8b 7a3c 0b66 c7bd
000002f0: 656a 61be 6dd7 2c3c 30ab 293c c6db 3a3e
00000300: 55f6 a9bd a223 c1bd 5c95 a53d c64b a4bd
00000310: 695e 8ebd 5804 91bb 00d6 3f3e 19d7 923b
00000320: 8690 d93c a7ca 073d 0815 873d 70fa cb3d
00000330: 083e 253c 444f a43d 7cbc b23d ee3b 38bd
00000340: 82fc 0f3e bd66 1ebd cf62 883e ccc1 32be
00000350: 6770 7f3d 1452 0cbe 5ff6 8fbe d970 b43d
00000360: 24c3 d7bc a432 1a3c 1c14 87bd bef4 5a3c
00000370: 1e02 dbbd 2512 31be 9f74 6ebc aa2d 2c3b
00000380: 6240 85bd 946d 923d 7898 9c3d 1e50 97bd
00000390: 54b2 0f3e 4cd7 833d 0588 0b3e 3156 81bb
000003a0: 5a07 d43c b5f9 bb3d 4282 8bbe 873c 6fbe
000003b0: bfae 733d 9b8d 613d ecab 243c 4fad 083d
000003c0: 96d8 0ebd ae25 913d d266 11bb 2f0b 15bd
000003d0: ece6 2bbd 15a6 26be 2003 c8bd 8b0e 5abd
000003e0: 9db9 34be 6123 303d 9d7b 13be 77af 2ebd
000003f0: 7669 363c 7d1d 0a3d a166 2cbe 969e 193e
-0.15131015 0.07896016 0.08768087 -0.25997403 0.000639808 0.10538203 -0.16647843 0.048435133
0.13446483 0.16381541 -0.06832363 -0.15020807 0.1934708 -0.06313582 -0.053766795 0.15981196
-0.04035615 -0.0559905 0.11603848 0.15163738 0.09699637 0.1344291 0.17541732 -0.021965727
0.02142273 0.050949205 -0.06415896 -0.06868195 -0.11387201 0.025330989 0.022181774 0.058550604
0.18229048 0.107289486 -0.34554675 0.15977418 0.020608686 0.15591177 0.03376012 0.037871722
0.09721686 0.1164082 0.019809593 0.035043646 0.11933586 0.0635325 -0.013172527 0.09178122
-0.1508132 0.17434041 -0.3059213 -0.084766716 0.15515663 0.10572862 -0.1772859 -0.007257185
0.20171806 -0.2630638 -0.024460973 0.29687387 -0.1682584 -0.031939957 0.19975534 -0.13042575
0.21469465 0.14698909 -0.10756404 0.05480226 -0.16917269 -0.1408904 0.042481855 0.13771665
-0.061209183 0.038368512 -0.06698443 -0.0013955701 -0.13777336 -0.1649908 -0.17381792 -0.091111705
-0.024807004 0.10521928 -0.01889275 0.00011240327 0.023306344 -0.0077803256 0.15128666 0.09957887
0.059416756 -0.07273432 0.06688566 -0.078498185 -0.11057432 -0.015426436 0.15744199 0.0051949513
-0.05698698 -0.07577232 -0.0040443614 0.1573367 -0.22646107 -0.17364727 0.0735147 0.028010262
0.16990462 0.14670642 0.026065761 -0.121172026 -0.019507997 -0.13934708 -0.00039148988 -0.06625006
-0.0719657 -0.053905834 0.02121234 -0.12515691 -0.09075658 -0.03224297 -0.07025154 -0.056572102
-0.06085014 -0.05416744 -0.042472117 -0.016302425 -0.05539268 0.020751674 0.03558155 -0.20992602
-0.055368092 -0.09435676 -0.10272127 -0.10599964 -0.04237725 -0.12683024 -0.10473727 0.17602852
0.17946242 0.23552495 -0.024195999 -0.03764985 0.04814593 -0.14840044 -0.19113243 -0.16514687
0.014569423 0.22299322 0.21302348 -0.048947856 -0.1947739 -0.10907051 -0.020512644 -0.017162248
-0.039261602 -0.03372626 0.073108286 -0.03290255 0.030616118 0.14212634 0.09671587 -0.0877357
0.13851227 0.096924864 -0.048640534 0.00016973806 -0.12681209 -0.026214927 0.0411543 -0.049776684
-0.06761695 -0.06012019 -0.008232209 -0.23429152 -0.12232191 0.33515966 0.107757695 -0.032942697
0.010818164 0.045251697 0.15764163 -0.22096598 0.19211836 0.27664644 -0.085997105 -0.17802289
0.0324498 0.053301778 0.015292117 -0.0973626 -0.22013243 0.010549408 0.010355756 0.182479
-0.08298937 -0.094306245 0.08085129 -0.08022265 -0.06951601 -0.0044255666 0.18733978 0.004481208
0.026558172 0.03315225 0.06595808 0.099598765 0.01008559 0.08022931 0.08727357 -0.04497903
0.14061168 -0.038672198 0.26637885 -0.1745674 0.062363055 -0.13703185 -0.28117654 0.088105865
-0.026338167 0.009411488 -0.065956324 0.013364015 -0.10693763 -0.17292078 -0.014554172 0.0026272335
-0.06506421 0.071498066 0.076462686 -0.07388328 0.1403287 0.06437549 0.13626106 -0.0039470424
0.025882412 0.09178487 -0.27247816 -0.23362933 0.059492823 0.055066686 0.010050755 0.033368405
-0.03487452 0.07087265 -0.002218653 -0.03638762 -0.04196827 -0.16274293 -0.09766221 -0.053236526
-0.17648931 0.04300249 -0.14402623 -0.042647805 0.011133542 0.03371953 -0.16836025 0.15001902

StatefulPartitionedCall/lyt_3/sequential_11/conv2d_71/BiasAdd/ReadVariableOp:0 f4 [32]
00000000: aa73 1ebb bfc2 49bc 24a9 88bc 29ee baba
00000010: 0676 ddbb 0943 74ba 3062 81bc 81ff d1ba
00000020: ce47 9bbd f3dc 203b 995a 1ebc 1e8a 6fba
00000030: a5b5 30bd b64c 263c 9782 553a c73e 90bc
00000040: d565 32bc 57bf 8cbc 324b 863c cc60 96ba
00000050: 34d7 80ba 8714 ff3b 69ef 99bb b9bf feba
00000060: 6fb0 17bb ef99 83bd 86da 08bb 9b7d 503a
00000070: 5c0b 42ba 1926 a5bc a6ab abbc 7640 793c
-0.0024177828 -0.0123144975 -0.016682215 -0.0014261651 -0.0067584543 -0.00093178503 -0.01579389 -0.0016021581
-0.07582055 0.0024545758 -0.009665155 -0.00091377075 -0.04314198 0.010150125 0.00081447646 -0.01760806
-0.010888536 -0.017181082 0.016393278 -0.001147294 -0.000982976 0.0077844295 -0.0046977294 -0.00194358
-0.0023145934 -0.06425845 -0.0020882203 0.0007953287 -0.00074022054 -0.020159768 -0.020955872 0.015213123

StatefulPartitionedCall/lyt_3/sequential_10/conv2d_70/Conv2D/ReadVariableOp:0 f4 [32, 1, 3, 3]
00000000: 368f 293e 7d5f c83d 63c5 d6bd 345c 883d
00000010: e519 f0bb e73d 84bd ece5 df3d 78f3 9dbd
00000020: 95d5 25bd e0d9 6cbd 3b08 cfbc 1d20 69bd
00000030: 2c88 cd3d 73c7 d43d 869b e63d f52c e83d
00000040: 9a5e 1bbe d430 893d a711 773d 8a7d f73d
00000050: 86eb 41be e7c6 4e3e b028 3fbc e1fb 25be
00000060: 3758 993c 3459 ef3d 9b1d 1abe 2278 9d3d
00000070: 2202 533d da73 83be 3787 90bc 2f2d 1c3e
00000080: 967e fabc 963b 01bd d6d2 083c dce6 ff3d
00000090: 9c03 503c f648 e7bd 4343 d83c 430d 9e3d
000000a0: b5a5 a6bd 3068 9dbc ce14 0c3e 43fe 44bd
000000b0: bd8f 1c3e 1220 edbc 3680 1f3d 003c b63c
000000c0: 10b9 823d 16bb 813d b6d8 993d 1c5e 04be
000000d0: b385 ba3d fa3b fdbd f179 c13c 455a 5a3c
000000e0: c8d1 33bc 850e 963c 2ea6 a6bd 7f1e 9dbd
000000f0: 3d2c 3e3c 738d 563d d0f3 a2bd 33e3 023e
00000100: 0136 ff3d 38b2 dd3d 3d50 4cbd 718f c43c
00000110: 0f6c 903d 37c7 babd ee60 3bbe e049 dfbd
00000120: 94db eebd 6fb6 d93d 73cc c3bd 06bd d6bd
00000130: 2c8c cfbd e62a f53d 2ded dc3c 41b8 cfbd
00000140: 1db6 02be c6d9 2bbe a0c1 3abd 3fd9 803d
00000150: 39fd 20be 1f1e 793c 6739 1b3e 41a7 e8bd
00000160: 2e0f c73d 546b 103e bc91 61bc 4da7 0c3c
00000170: 9bae 083d b069 32be 54c7 e3bb 6529 ce3d
00000180: 9d63 11be 5ec5 d33d 3fc1 8e3d f8bd 3fbc
00000190: 4f5a 03be 3a00 2dbe d9a5 d83c 0f32 653d
000001a0: 7a08 0dbd 9dc3 b3bc c182 a03d 157e 8bbd
000001b0: b8c3 57bc 8857 d1bd 591d 913d 3edf a73d
000001c0: c99f dfbd 0996 33bc 3d11 81bd e86d f0bd
000001d0: b104 b1bd 0e39 e13c 65d7 2b3d 6156 36bd
000001e0: 296f da3d 19a2 e03d c527 44be dbd9 223e
000001f0: 2ebd d9bb 5e27 3ebe f3e9 003e 30fd 2dbe
00000200: 2a93 103e 45cc 0b3e 1510 373e 1ceb 00be
00000210: f4e5 613d 8917 d9bb e951 033d a09b 1bbc
00000220: 57e9 05bc c4f9 12bd eaf4 8f3d a92c 4ebd
00000230: 9c3a 2d3d f644 a2bd ab8b d8bc fe76 27bd
00000240: 0c94 293d 7e1a 21be 9837 1abe fca7 49bd
00000250: c987 f2bd 06a9 89bd 913d 0c3e acb9 253c
00000260: f164 133e c441 75be 52f0 503e 15cc ccbc
00000270: e618 933e 78b8 16be 752a 1ebd 1e28 423d
00000280: 8249 6fbe db43 153e 005d 01bd 23c8 cdbd
00000290: e868 dfbd 99b2 b4bd 8dfe 743d 31ad 14bc
000002a0: 962f 0fbd 2f2f 05bd 6336 2ebd 44b2 d53c
000002b0: bf64 bc3d 6588 113b 5e6c c5bd 0015 36be
000002c0: 5b57 3abc 4749 e8bd 0f42 d6bd 4eb5 3ebd
000002d0: ea49 f2bd bfa7 9fbd cdf3 003e 9d0c c8bd
000002e0: ba11 e93a 2d09 303e c992 20be d137 403c
000002f0: 3e2b f33d 42c3 e5bd 8d2b 0abe f382 2dbd
00000300: ca1a 523e 3d8f c73d 5225 6f3e ad7d d6bd
00000310: 621d da3d 18bc 6dbe c02b a9bd 0961 45bd
00000320: 2dab ab3d 7489 063e f0de 123e 35f8 8c3d
00000330: e6f1 4d3b fac4 e53c d60f 893d 55cb 5e3e
00000340: ded8 8d3e e807 193e c9ff 8abc e7e9 963b
00000350: dcda 7fb8 c893 29be 32e4 89be eff4 50be
00000360: eac1 0dbe b0ee 7ebe d7e2 59be 6bc6 8e3d
00000370: 29b5 8b3d 8ca6 983b c295 dd3d eaa2 0c3e
00000380: 3be8 473e b2a3 b0bd d7c2 603c f22f 0e3e
00000390: bda3 35be 4f25 613c 7508 053e d528 3fbe
000003a0: f460 3a3b 4a75 133e 190e 19be e325 09be
000003b0: 0f78 0ebd bbbc 1d3c f15a 4dbc a114 ed3d
000003c0: 3078 e13d 10b8 ab3d 74a9 d9bb 503c 67bd
000003d0: 5983 5a3d 2abb 38bd f1d3 c1bd 096e c3bd
000003e0: f50d 11be b2ed 9c3c 8ba1 d1bd fff9 06bd
000003f0: 9cf2 803d f92d 523e 7ecf 4e3e 9ac9 823d
0.16558537 0.09783838 -0.10486867 0.06658211 -0.0073273056 -0.064571194 0.10932526 -0.077124536
-0.04048689 -0.05782497 -0.02527248 -0.05691539 0.10035738 0.103896044 0.112601325 0.113367
-0.15172806 0.06698766 0.06031957 0.120844916 -0.18937501 0.20193063 -0.0116674155 -0.16209365
0.018718822 0.11686936 -0.15050356 0.07688929 0.051515706 -0.25674325 -0.0176426 0.15251611
-0.030577939 -0.031550966 0.008351048 0.12495205 0.012696173 -0.11293213 0.02639926 0.07717373
-0.08137075 -0.01921472 0.13679811 -0.048094045 0.15289207 -0.028945956 0.03894063 0.022245407
0.06382954 0.06334512 0.075120375 -0.12926525 0.09107532 -0.12364955 0.023617717 0.013327186
-0.010975309 0.01831747 -0.08137165 -0.07671832 0.011607227 0.05238099 -0.0795666 0.12781982
0.12461472 0.10825008 -0.04988121 0.02399418 0.070518605 -0.091200285 -0.18298694 -0.109027624
-0.11662975 0.106304996 -0.0956048 -0.10485272 -0.101341575 0.11971073 0.026968563 -0.101425655
-0.12764783 -0.16782293 -0.04559481 0.062914364 -0.15721597 0.015204935 0.15158616 -0.11360026
0.09719692 0.14103442 -0.013767656 0.0085848095 0.03336964 -0.17423129 -0.006951252 0.10066489
-0.14198156 0.10340379 0.069704525 -0.011703007 -0.12827419 -0.16894618 0.02644627 0.055955943
-0.034431912 -0.021943862 0.07837439 -0.068111576 -0.013169222 -0.102217734 0.07085676 0.08196877
-0.109191485 -0.010961064 -0.06302116 -0.11739713 -0.08643473 0.027493026 0.041953463 -0.04451597
0.10665733 0.10968418 -0.19155796 0.15903418 -0.0066448664 -0.18569705 0.12589245 -0.16991115
0.14118639 0.13652141 0.17877229 -0.12589687 0.05515094 -0.00662512 0.032060537 -0.009497553
-0.008173308 -0.035882726 0.070291355 -0.05033556 0.042292222 -0.079233095 -0.026433786 -0.040884964
0.041400954 -0.15732762 -0.1506027 -0.049232468 -0.11842305 -0.06721692 0.1369536 0.010115068
0.14393975 -0.23950869 0.20404175 -0.024999658 0.28729934 -0.14718807 -0.03861471 0.04740154
-0.23367885 0.14576666 -0.031582832 -0.10047939 -0.10908681 -0.08823127 0.05981307 -0.009074495
-0.03495749 -0.0325157 -0.042532336 0.02608598 0.09198903 0.0022206542 -0.0963981 -0.17781448
-0.011373366 -0.113421015 -0.104618184 -0.046559624 -0.11830504 -0.07795667 0.12593003 -0.09768031
0.0017781772 0.17191 -0.15680994 0.011732058 0.11873482 -0.11218883 -0.13493176 -0.04236121
0.20518032 0.097441174 0.2335408 -0.104731895 0.106501356 -0.23216283 -0.08260298 -0.048188243
0.083822586 0.13138372 0.14342856 0.06883279 0.00314247 0.028048027 0.066924736 0.21757253
0.2770452 0.14944422 -0.016967671 0.00460552 -6.1000566e-05 -0.1656028 -0.26931912 -0.20405935
-0.13843504 -0.2489574 -0.21277939 0.06971439 0.06821663 0.004658526 0.1081958 0.13734022
0.19522183 -0.086249724 0.013718328 0.13885477 -0.17738242 0.013741805 0.12991507 -0.1866792
0.0028439136 0.14400211 -0.14946784 -0.13393359 -0.034782466 0.009627516 -0.012533889 0.115762
0.11009252 0.083847165 -0.006642515 -0.056454003 0.05334792 -0.04510037 -0.09464253 -0.09542472
-0.1416548 0.01915631 -0.1023589 -0.03295326 0.06296274 0.2052535 0.2019634 0.06386109

StatefulPartitionedCall/lyt_3/sequential_10/conv2d_70/BiasAdd/ReadVariableOp:0 f4 [32]
00000000: b08a c83b b147 04bd 0b11 61bb 6f31 c4bb
00000010: 0ae7 11bc 60c2 e63b 565b cc3b 9f5b b23b
00000020: 9a9a a23c da21 87bb ed9f 103b eb3d 6fbc
00000030: b187 17bd 9b33 99bc d017 b0bc 6de7 2cbd
00000040: d542 d2bc 40bd c5ba c490 05bd be9b 88bc
00000050: e94d a8bc 5d88 31bb c075 b4bd 9e20 10bc
00000060: 9fc5 cebb fdd9 adbb 1b19 49bc fc40 453c
00000070: e532 a6bc 0035 4cbd 6e84 30bc 4576 bbbb
0.0061200485 -0.032294933 -0.0034342434 -0.0059873383 -0.008905182 0.0070422143 0.006236474 0.005443051
0.01984911 -0.0041239085 0.002206798 -0.014602165 -0.03699464 -0.018701365 -0.02149573 -0.042212892
-0.025666634 -0.0015086308 -0.032608762 -0.016675826 -0.020544963 -0.0027089335 -0.088115215 -0.008796839
-0.0063101794 -0.0053055272 -0.012274052 0.012039419 -0.02028794 -0.049855232 -0.010773761 -0.005720886

StatefulPartitionedCall/lyt_3/multi_head_self_attention_11/dense_53/Tensordot/ReadVariableOp:0 f4 [32, 32]
00000000: 2da4 11be f30f 5fbe cc0e 67bd d095 e2bd
00000010: 24a2 59be 4b81 78be f964 713e fb35 613e
00000020: 0f03 223e 440e 86be 09f7 0dbd f0f1 2439
00000030: c252 483e d00f 4fbe e245 283e 07b5 71bd
00000040: 133e 9bbe e7fb 1e3e 0932 79be 0c27 6b3e
00000050: c925 42be 7329 1d3e 9389 133c d34f 6d3a
00000060: d6f2 243d 6d47 473e 14aa 0c3e 91af 12be
00000070: a782 be3d fd9b ffbc f7e7 383e 61d1 e13d
00000080: adda 4c3c 3c6c a93b 4be7 f0bd 4ab6 0f3e
00000090: 0cd8 7ebd 500b 07be 18cf 2c3e c4aa 3fbe
000000a0: c343 5ebc f5ba 653e f748 ab3e 4b64 bfbd
000000b0: 53c1 883d 6568 fcbd db63 12be 69fb cdbd
000000c0: e9f4 503c 29f6 663e 8591 a2be 03ac 63bb
000000d0: 9cb2 7bbe 6bcc 593d 3dfd 7c3d 76ec 3f3e
000000e0: 6024 4bbd 3f58 223e 99a0 3d3d a393 153b
000000f0: 63c9 9abe 62da a2b9 a198 92be 2f56 623e
00000100: c124 cebe f56d b23e 40e3 b83e 36dc 4b3e
00000110: 7977 3e3e 26a4 b9bc 0635 a03e e60c ee3d
00000120: 03f1 a6bd ec27 bd3d 570e 0c3e d49b b7be
00000130: 890c 56be b0b9 47be 359e 943d ab62 12be
00000140: cc37 533e 69cd e93d 5a70 e23c 2942 b4be
00000150: a700 9abd 88da 04bf 62e9 303e 27fc d03d
00000160: 28c4 b9be 245f 603e 857e 083e 4f04 80bd
00000170: c679 28be 6059 67be 438e 1b3d 6964 48bd
00000180: 4078 1dbe d7c5 1dbe eba6 3e3e 9e1d 833c
00000190: 1d52 ee3c 73d8 acbb 76db e53e 7c94 0c3d
000001a0: ad3b 6cbe cc41 a63e ceb1 b4bc 0a5f 83be
000001b0: 599b 0bbe 5ad3 a83d e8f2 0ebe e1e8 88be
000001c0: 93e5 80be 61b1 02be 1b6b 773e 932e 543e
000001d0: 1c48 3e3e 198d f73d 16ec c9bd 9627 4fbe
000001e0: 6fea 96be 1905 1ebe 80af f83c 1283 423e
000001f0: c2f1 28be 6d66 73be 19e5 5c3e 2ff4 883d
00000200: f0b3 dbbd fb1d 16be 3e88 cabd 5fd6 463e
00000210: 8a33 46be fe79 96be d4a9 143e 1e12 183e
00000220: c364 98be e435 4c3e e168 723e a18c 02be
00000230: 1f72 c33d ddc2 f53d 8f5c 6fbd 2c43 013c
00000240: 682f 08bd 113e 5f3e aff0 30bd 0c4f 383d
00000250: 6dbc 90bd 24ab 98be ed59 263e 4cdd 16be
00000260: 7ec4 023e dcd0 80bc 2040 8abd 3ee1 0c3e
00000270: e367 043e e413 abbe f67c 1d3e d5be 313e
00000280: 0d90 743b 0704 0dbe 41be 173e e4da 30be
00000290: 9be8 8f3d f066 0f3e 54a7 0ebe b05a 003e
000002a0: d41c 5abd 31dd 4fbe aac7 84bd 56c1 863e
000002b0: 4516 783e e041 55be bebf 05be 60e7 373e
000002c0: 3d27 a63d 1195 27be add9 7c3e 7500 63be
000002d0: 9a36 83be 303d 503d d13c f3bc 8122 473e
000002e0: 00df 223e f49a 133d acf2 623e 1e5b 7a3d
000002f0: 8aad 013e fd8c 69be 8535 f0bc d14d 2d3e
00000300: 557c ffbd 4fab 023d 3077 103e 750c 10be
00000310: dc09 c83c 1b1c 143e 7e5e b93d c7d1 a33b
00000320: 3352 f63d aee2 13be 169c 16be a3a3 043e
00000330: ff85 bbbe a071 02bd 803b 753d 764b 29be
00000340: 8a3b 8b3e 2e28 4cbe 5b4f a43d ef6e 33bd
00000350: 9b81 8e3e 9f7a ddbd 767f 353e 4ed0 23be
00000360: c1fd 333e d25a 913d 6b07 ab3e 9edf 2b3e
00000370: 9575 a23e 49f0 cf3d 9ac9 3fbc 0356 503e
00000380: 21b3 423e 8273 8a3e 3a24 fdbd b94c 18be
00000390: 08d1 8fbe 92f0 833d 48eb a4be b93d 583e
000003a0: f885 1fbe ed2b 8ebe 18a7 5ebe c035 20be
000003b0: 91c8 143e 72fd bdbd 6224 e8bd 421c 8abd
000003c0: ef8a 9cbe f6c0 94be baeb b83e 4691 063e
000003d0: 8227 0c3e e67f 3c3e 48ec 763d db04 3abe
000003e0: f0e9 503c 73e4 8ebd c7c0 1bbe 9809 17bd
000003f0: dd2b 84be bdfc 863d 717b 42be f5a3 4b3e
-0.14222784 -0.21783428 -0.056410596 -0.11063731 -0.21253258 -0.24268071 0.23573674 0.21993248
0.1582148 -0.2618276 -0.03465942 0.00015730388 0.1956282 -0.20220876 0.16432908 -0.05901053
-0.30320796 0.1552578 -0.24335493 0.22964114 -0.18959726 0.15347843 0.009004968 0.0009052727
0.04027065 0.1946084 0.13736755 -0.14324786 0.09302264 -0.03120231 0.18057238 0.11026264
0.012503308 0.0051703732 -0.11762866 0.14034382 -0.062217757 -0.13187909 0.16875875 -0.18717486
-0.01356596 0.224346 0.33454105 -0.09345301 0.06677499 -0.12324599 -0.14295904 -0.10057718
0.012753704 0.2255484 -0.31751648 -0.0034739978 -0.24579853 0.053173464 0.061764944 0.18742546
-0.049595237 0.15853976 0.046295736 0.0022823594 -0.3023177 -0.00031061756 -0.28632072 0.22103189
-0.40262416 0.34849516 0.36110878 0.19908223 0.18600263 -0.02266128 0.31290454 0.11623554
-0.08151438 0.0923613 0.13677345 -0.35861075 -0.2090322 -0.19504428 0.07256738 -0.14295451
0.20626754 0.11416132 0.027641464 -0.35206726 -0.07519656 -0.5189595 0.17276528 0.10204344
-0.36282468 0.21911293 0.13329513 -0.06250822 -0.16452703 -0.22592688 0.03797747 -0.048923884
-0.15377903 -0.15407501 0.18618362 0.016005334 0.029091889 -0.005274826 0.44893998 0.034321293
-0.2306964 0.32472074 -0.02205744 -0.25658447 -0.13633479 0.08243437 -0.13959849 -0.26740173
-0.2517515 -0.12762977 0.24161951 0.20720892 0.18582195 0.12087459 -0.09859483 -0.20229945
-0.29475734 -0.15431632 0.030357122 0.18995312 -0.16498473 -0.23769541 0.21571769 0.06687199
-0.1072768 -0.14659874 -0.098892674 0.19417714 -0.19355598 -0.29389948 0.1451791 0.14850661
-0.29764375 0.19942433 0.2367282 -0.12748958 0.09543251 0.12000058 -0.05843788 0.00788955
-0.033248335 0.2180102 -0.043198284 0.04499726 -0.07067189 -0.2981807 0.16245241 -0.14732856
0.12770268 -0.015724592 -0.06750512 0.13757798 0.12930255 -0.33413613 0.153797 0.17357953
0.0037317306 -0.13771068 0.1481867 -0.17271 0.07026788 0.14004111 -0.13931018 0.12534595
-0.05325015 -0.20299222 -0.064833954 0.2631938 0.24227245 -0.2082591 -0.13061425 0.17959356
0.08112953 -0.16365458 0.24692412 -0.22168143 -0.25627595 0.050839603 -0.029692085 0.19446756
0.1590538 0.036036447 0.22162884 0.061122052 0.12663856 -0.22807689 -0.029322395 0.16924216
-0.12474886 0.031901654 0.14107966 -0.14067252 0.024418764 0.14463846 0.09051226 0.0049993726
0.12027397 -0.1444194 -0.1470798 0.12953047 -0.36625668 -0.031846642 0.059871197 -0.16532692
0.27193862 -0.19937202 0.08022948 -0.043806966 0.27833256 -0.10814404 0.17724404 -0.1599743
0.17577268 0.07097401 0.33404097 0.16784522 0.31730333 0.10153253 -0.01170578 0.20345311
0.19013645 0.2704125 -0.12360425 -0.14873017 -0.28089166 0.064423695 -0.32210755 0.21117295
-0.15578449 -0.27767888 -0.21743429 -0.15645504 0.14529635 -0.092768565 -0.113350645 -0.06743671
-0.30574748 -0.29053468 0.36117345 0.13141355 0.13686946 0.18408164 0.06028393 -0.18165915
0.012751088 -0.06977167 -0.15210257 -0.036874384 -0.25814715 0.06591175 -0.18992402 0.19886763

StatefulPartitionedCall/lyt_3/multi_head_self_attention_11/dense_53/BiasAdd/ReadVariableOp:0 f4 [32]
00000000: c7ce 98bc c7a9 10bd 582b b9bd 02ac 85bd
00000010: 4457 383b 6fac 8fbd 6d04 22bd 67c2 a9bd
00000020: 43ce 7cbd 416c 1037 4603 8abd 65ec 053d
00000030: b51d 343d 381f 59bd fb85 84bd 570f 503d
00000040: bc42 73bd a036 9cbd c5c2 91bc 34b8 4f3c
00000050: 715a bf3d acaa 303a 75cd 75bd e7a8 6ebd
00000060: 2631 943d 8b8a a83d 030c a13b 52b1 a2bd
00000070: 8582 973d c929 1e3d cd3d a9bc f0e0 af3d
-0.018653287 -0.035318162 -0.0904147 -0.065269485 0.0028128186 -0.07015311 -0.039555002 -0.082890324
-0.061720144 8.608274e-06 -0.067389056 0.032696147 0.043973643 -0.05300829 -0.06470867 0.05079588
-0.059389815 -0.076276064 -0.017793069 0.012678195 0.09343422 0.0006739299 -0.060010392 -0.058266547
0.07235937 0.0822955 0.004914762 -0.079439774 0.073979415 0.03861407 -0.020659352 0.08587825

StatefulPartitionedCall/lyt_3/multi_head_self_attention_11/dense_52/BiasAdd/ReadVariableOp:0 f4 [32]
00000000: 8cf9 4d3d ff38 c1bc 1891 bebd bc9b b4bd
00000010: cb71 25bd 7922 2a3d 8e12 103d d320 d93d
00000020: 61fc 183b 6d1e a9bc b9e2 e2bc bcca 6ebd
00000030: 5542 843d 0188 2a3d 616b a5bc 15df 89bc
00000040: bfa2 19bd b90e acbd a52a afbd b0e1 0fbd
00000050: 853f fabc 858d 353c b3a7 6dbd fb82 a2bc
00000060: 66e0 413d 29c8 053c 1dbe 67ba 3902 cdbd
00000070: bbd9 853b c1a6 f7bb 73a8 9ebd 6656 a83b
0.050286815 -0.023586748 -0.09305018 -0.088187665 -0.040391725 0.041536782 0.035173945 0.10601964
0.002334379 -0.020644391 -0.027696 -0.05829881 0.06457964 0.04163361 -0.020192804 -0.016830007
-0.037508722 -0.084012456 -0.08553056 -0.03512734 -0.030547867 0.011081104 -0.05802126 -0.019837847
0.047333144 0.008165398 -0.000884028 -0.100101896 0.0040847934 -0.0075577204 -0.07746973 0.0051372526

StatefulPartitionedCall/lyt_3/multi_head_self_attention_11/dense_51/BiasAdd/ReadVariableOp:0 f4 [32]
00000000: 8231 95b9 86eb 1339 2d14 6a39 c14a 4eb9
00000010: 4f3a 3938 24d8 6739 6314 deb8 387a afb8
00000020: 94d3 253a de0e 4339 a346 333a 3937 003a
00000030: 1ccf 293a 180b 243a 1441 3d3a 51b8 6d3a
00000040: 2ca8 5239 3929 fe38 a908 7b39 9462 c7b8
00000050: c948 a1b9 671c 9438 3c30 8539 9002 8fb9
00000060: cda6 09ba 0ec4 8db6 6dfd a138 7529 83b5
00000070: 2add 1bb9 e5f6 ceb9 6d44 f0b8 406d c138
-0.0002845638 0.00014106752 0.00022323495 -0.00019673539 4.416174e-05 0.00022110395 -0.00010589582 -8.367415e-05
0.0006325778 0.00018602188 0.0006838834 0.00048910413 0.00064777 0.00062577566 0.0007219475 0.0009068298
0.0002008981 0.00012119342 0.00023940452 -9.507421e-05 -0.00030762542 7.06248e-05 0.00025403674 -0.00027276995
-0.00052509905 -4.224951e-06 7.7242825e-05 -9.772326e-07 -0.00014864342 -0.00039475333 -0.00011456837 9.2233066e-05

StatefulPartitionedCall/lyt_3/multi_head_self_attention_11/dense_50/BiasAdd/ReadVariableOp:0 f4 [32]
00000000: bfed afbe 303f 91be 309c af3e 3275 70be
00000010: 2d7f a2be c18b b83e 95ca c1be 4361 a2be
00000020: b2f1 793e 5f52 1d3e 81a0 7a3e 865c 9d3e
00000030: 9a7d 8b3e d966 8c3e e022 c23e 84ec b33e
00000040: 34a5 9abe 8824 8dbe ced4 c0be d824 e33e
00000050: 7538 913e dae2 86be dec7 74be 185c d03e
00000060: 0dd7 7b3e 19fa 193b 67b0 5d3e df22 a43e
00000070: dd53 723e f007 a33e 5b3f 323e b9ed 95be
-0.34361073 -0.2836852 0.3429885 -0.23482206 -0.31737652 0.36044124 -0.3784987 -0.3171483
0.24408606 0.15363453 0.2447529 0.30734652 0.27244264 0.27422217 0.37917233 0.35141385
-0.30204165 -0.27566934 -0.37662357 0.44364047 0.28363386 -0.2634495 -0.23904368 0.40695262
0.24593754 0.0023495017 0.21649323 0.32057855 0.23664804 0.31841993 0.1740698 -0.2928293

StatefulPartitionedCall/lyt_3/msef_block_3/se_block_3/dense_55/MatMul/ReadVariableOp:0 f4 [2, 32]
00000000: 71db e1bc 9445 253e dc68 bcbe e53c 2dbe
00000010: f95d 82be 636c 5ebd 2a23 e83b 0bb0 573e
00000020: f80c 453e 28ee 44be 9945 313d 7fb7 87bc
00000030: 60f0 af3c f790 87bd 98bb 1b3e 139d 0e3e
00000040: e55c 053f 739e abbe 1a36 bb3e 1c95 883e
00000050: be2a 853d c5fc 4d3d e61b a6be 91fb 0cbe
00000060: 4e68 263e 3a89 d13c 438a 863e c742 78be
00000070: 51ef 52bd 0699 85be 2ae9 28be 0ccf 5dbe
00000080: d5f1 0dbe 4125 a13d 1fdb 003e e4a6 eb3e
00000090: 27bc 19bf a250 aebd ac98 e13e fa25 b33e
000000a0: 35cf 3f3e 9c1c 703d 82e7 373e 3de1 c9be
000000b0: 2bfc dfbe 8811 f9be 6e92 8cbd 1759 85be
000000c0: c204 123e c909 ecbd 959c 1cbe f3b2 853e
000000d0: 9e5a 17be cb0a 62bd 0b9a 19be 4102 d9be
000000e0: 7740 88be e0a3 49bb 1a70 963e 871b 92be
000000f0: ac66 f73d 7470 a8be c65a 91be 0680 bfbe
-0.027570458 0.16139823 -0.3679875 -0.1691776 -0.2546232 -0.054302584 0.00708427 0.21063249
0.19243228 -0.19231474 0.043279264 -0.01656699 0.021476924 -0.06619447 0.1520828 0.13927107
0.5209487 -0.33519325 0.36564714 0.2667626 0.06502293 0.050289888 -0.3244316 -0.1376784
0.16250727 0.02557813 0.2627736 -0.24244224 -0.05149776 -0.2609331 -0.16495195 -0.21661013
-0.13861783 0.07868434 0.12583588 0.46025765 -0.6005272 -0.08511473 0.44061792 0.3498991
0.18731387 0.058621034 0.17959407 -0.39429656 -0.43747076 -0.48646188 -0.06863867 -0.26044533
0.14259627 -0.11525304 -0.15294106 0.2611309 -0.14780661 -0.055186074 -0.15000169 -0.42384532
-0.26611683 -0.0030767843 0.29382402 -0.28536627 0.1208013 -0.32898295 -0.28389567 -0.37402362

StatefulPartitionedCall/lyt_3/msef_block_3/se_block_3/dense_55/BiasAdd/ReadVariableOp:0 f4 [32]
00000000: 111a bfbc 854e 023d c33d 7c3c 04b9 e93d
00000010: 1538 91be 96f0 fbbd 0bb5 513e dad0 7a3e
00000020: e110 913b 541f c93d 76cd 113e 5541 40be
00000030: 333c 11be 2d48 bbbe b6f3 18bd d18e 453d
00000040: bf34 77bd 74fb c8bd 6712 a0bd 44df 4c3d
00000050: 4b7b 51bd a2ce da3c 0f90 96bd 3ce7 94be
00000060: 264c cb3d 90a9 b6ba 5d02 cf3e a4f2 013e
00000070: bd68 d5bd 6e1c 6ebe 0552 81bd ccb5 fabc
-0.02332786 0.031813163 0.0153955845 0.11412242 -0.283631 -0.123017475 0.20479219 0.24493733
0.004427061 0.098204285 0.14238533 -0.18774922 -0.1418312 -0.36578503 -0.037341796 0.048231903
-0.060353037 -0.09813586 -0.0781601 0.05001761 -0.051142972 0.026709858 -0.07351696 -0.29082668
0.099266335 -0.0013936032 0.4043149 0.12690216 -0.10420368 -0.23253033 -0.06314472 -0.030604266

StatefulPartitionedCall/lyt_3/msef_block_3/se_block_3/dense_54/MatMul/ReadVariableOp:0 f4 [32, 2]
00000000: 2ec1 66ba 3cef b53e f50d a1be 7466 8abe
00000010: 787e c33e eb6d 633e e45b 83be fe93 a9bd
00000020: bc30 c43b 1685 ec3c dbf6 753e 2789 45bd
00000030: 715a c1bd 815d cc3d f73b 27be fd54 0dbf
00000040: 86e6 b6be 2234 3abe 963f c1bd 45a5 37be
00000050: c968 84be d4e3 89be 4720 bebc 5530 38be
00000060: c26b adbe 7672 4ebe f690 aa3d 28e2 1b3e
00000070: 1228 023d 25c9 9c3d 8fbc b5be c858 923e
00000080: 40dd 70be c2e7 313e 3bd4 9239 5c8a f7bd
00000090: 5b8e 803e c4f2 c13e 3177 a8be 46a4 68be
000000a0: a1f2 1abf 461e 90bb 51fc 163e 658e 17be
000000b0: 9ad3 243d 4491 0b3e 6a70 3e3e ac44 d5be
000000c0: 2d99 c43e f68f a9bd 4262 a9be 0e11 bcbe
000000d0: f91f f2bd 2a84 98be c606 c03d c9ad 583e
000000e0: cc81 8f3e 93de abbe 0d18 113e 062a 7dbe
000000f0: b6bd e73d 800b 96be 76ec 87bc db3d 7f3e
-0.000880259 0.35534084 -0.3145596 -0.2703129 0.38182425 0.22209899 -0.25656044 -0.082801804
0.005987255 0.028872054 0.24019949 -0.0482265 -0.094410785 0.09978772 -0.16331469 -0.55207807
-0.3572275 -0.1818395 -0.09435956 -0.17934139 -0.25861195 -0.26931632 -0.02320875 -0.17987187
-0.33871275 -0.20160851 0.0832843 0.1522299 0.031776495 0.07655553 -0.3549542 0.2858336
-0.235219 0.17373565 0.00028005414 -0.12086937 0.2510861 0.37880528 -0.32903436 -0.22718915
-0.6052647 -0.00439814 0.14744689 -0.14800413 0.04024086 0.13629633 0.1859757 -0.41653955
0.38398114 -0.082794115 -0.33082777 -0.36731762 -0.118225046 -0.29788333 0.09376292 0.21160044
0.28028715 -0.33568248 0.14169331 -0.24723062 0.11315481 -0.2930565 -0.016592246 0.2492594

StatefulPartitionedCall/lyt_3/msef_block_3/se_block_3/dense_54/BiasAdd/ReadVariableOp:0 f4 [2]
00000000: 3de0 c63c 69a0 643d
0.024276847 0.05581704

StatefulPartitionedCall/lyt_3/msef_block_3/layer_normalization_3/mul/ReadVariableOp:0 f4 [32]
00000000: ce4a 6f3f 02e2 693f 09b6 6f3f 555e 6c3f
00000010: add5 9e3f 98d6 7f3f 7721 8f3f f79a 7c3f
00000020: 2ffc 7e3f e0ac 693f 6388 8b3f bc15 6c3f
00000030: df89 813f 59b3 8d3f 3a58 703f a0b4 7a3f
00000040: dbbf 863f e8a2 863f 3ec3 913f 6763 923f
00000050: 1b48 8c3f 5263 633f 0d42 7e3f b310 8c3f
00000060: 5afe 723f e6d0 7e3f 70fb 5f3f 16bf 703f
00000070: a795 843f 5fc7 8a3f 23a4 803f ebe4 653f
0.9347352 0.91360486 0.9363714 0.9233144 1.2408959 0.9993682 1.1182088 0.9867396
0.9960355 0.9127941 1.0900997 0.92220664 1.01202 1.1070358 0.93884623 0.9793186
1.05273 1.0518465 1.1387708 1.1436585 1.0959505 0.88823426 0.99319535 1.0942596
0.9491936 0.99537504 0.8749304 0.94041574 1.035817 1.0842093 1.005009 0.89802426

StatefulPartitionedCall/lyt_3/msef_block_3/layer_normalization_3/add/ReadVariableOp:0 f4 [32]
00000000: 852d 103d a628 30bd 44d8 9b3c 527c 85bd
00000010: a4c7 93be 460c b23b 8d83 4d3d a697 babd
00000020: 5652 21bd 17d0 3dbc 62d3 2dbe 2a75 2cbc
00000030: ffc5 2a3d 25b2 b13d b104 3b3d 812d a23c
00000040: 140f 5f3d f9f2 7e3d 3260 973d 8a37 04be
00000050: 823a 95bd fbe3 53bd efbc f73d c91a 9abd
00000060: 44b6 27bd dfa9 3fbd 03dc bbbd c9fe f9bb
00000070: 6804 6ebd f50c a0bc e07b 22bd df5d 4a3d
0.03519966 -0.043007515 0.019024022 -0.06517853 -0.2886325 0.005433592 0.050174285 -0.09110956
-0.039385162 -0.011585257 -0.16975167 -0.010525981 0.04169273 0.086765565 0.04565877 0.019797089
0.05445774 0.062243436 0.07391395 -0.12911811 -0.0728655 -0.05173109 0.12096583 -0.0752464
-0.040945306 -0.04679286 -0.09172823 -0.0076292497 -0.05810967 -0.019537428 -0.039668918 0.04940593

StatefulPartitionedCall/lyt_3/msef_block_3/depthwise_conv2d_3/BiasAdd/ReadVariableOp:0 f4 [32]
00000000: e483 a9bd 7ddd 67bd c4dd 93bc 63a1 8e3d
00000010: 5bd4 6bbb e116 30bd 76e7 0e3e 4d7b 153e
00000020: 7148 a3bd 4415 83bc 2f4a 193e 8b28 afbc
00000030: fe3d 82be 9a63 1bbe 6dd2 b33d c9da 503d
00000040: 4fb8 f33c 9554 dfbd d361 58be 45ff 10be
00000050: 52ac 3dbe 073c c5bc bf3a 20be 4dd4 18be
00000060: f5bc f83c edfa 193d 361e ba3d d42e 98bc
00000070: d245 0dbe 9850 1a3d 5f24 943d a587 aebc
-0.08277109 -0.056607712 -0.018050082 0.06964376 -0.0035984728 -0.04299057 0.13955483 0.14597817
-0.079728015 -0.016001351 0.14969705 -0.021381637 -0.2543792 -0.15174714 0.0878037 0.0509899
0.029750971 -0.109048046 -0.21131067 -0.14159878 -0.18522766 -0.024076475 -0.1564741 -0.14924736
0.03036354 0.037592817 0.090877935 -0.018577017 -0.13796166 0.037674516 0.072335 -0.021304915

StatefulPartitionedCall/lyt_3/kernel:0 f4 [3, 3]
00000000: 8716 993e 2eac 16be 076f 1d3f a245 163f
00000010: a9e6 93be c1d4 03bf d578 e93d c03c df3e
00000020: 2ed2 ccbd
0.299 -0.14714119 0.6149754 0.587 -0.28886917 -0.5149651 0.114 0.43601036
-0.10001026

StatefulPartitionedCall/lyt_3/denoiser_7/multi_head_self_attention_10/dense_49/Tensordot/ReadVariableOp:0 f4 [16, 16]
00000000: ecf5 0fbe d36e 673e 28ee b33e 08b3 81be
00000010: abfb cf3d a72a 1bbe 9475 753e 3021 adbe
00000020: cbe5 f7bd 34df 7e3e 619a 8bbe 8022 ffbd
00000030: 85ad 1abe ad90 d8be d856 78be c2be 49be
00000040: b84a 07bc 77d2 a0be 9437 04be 50f7 50bd
00000050: 5270 c4be 3294 78be 501a 99be c550 463d
00000060: f2ec a13d 520f 1cbe 252d 1d3e e4c0 c33e
00000070: 50bf 20be 1f0e f1bd 208b 5b3e efd1 893e
00000080: 832a 793e 074f 873e b17a 753d fef2 fe3e
00000090: f0cb ec3d 66ee debe edc6 86be ad75 87be
000000a0: 2e68 833d f1e6 c2bd c97e 09bf a60e ce3c
000000b0: 661f b0be 8ded ebbc 77af 983e 45b1 943e
000000c0: c32c 2fbe 4db1 22be c1f3 92be 325b 9ebe
000000d0: dbf8 933e 7bab 09be 868b d7bd d3ca b03e
000000e0: 9425 c13e 97a5 efbd dc4e b1be 31e4 fbbc
000000f0: 722d 803e dca4 b1be 14b7 86bd 2595 d3be
00000100: 7423 4c3d 2d3f a33e 197e 893d 64ed 48be
00000110: 8f57 2abe 1ef3 00be a651 0e3d 3dae d3be
00000120: 6a5b 28be 9ef3 15be bc11 afbd ca00 c43e
00000130: ab93 ae3b 424f a83e d0a2 873e 4fdb 99be
00000140: c968 9f3c 84c3 84be b01e 343e 1188 97bc
00000150: d929 05be be87 8e3e 87d6 103e 42a6 f13d
00000160: defb dc3e c49d 43be 28a7 a03d 769b 64be
00000170: e449 7d3e 835c 8e3e 84e5 48be 2b1d bb3d
00000180: b391 2d3e 43f9 38bc 23de 4b3d a7ee 60bc
00000190: 2e99 3f3d 5b7a 7dbe 9ec1 b53d 1f92 8bbd
000001a0: 329e 3f3e bcba 863e bf1d 30be 6e70 f6bd
000001b0: d1a0 863e 463c 9fbd 40e2 e6bd 95b1 d5be
000001c0: dd07 8ebc edb2 4bbe 8c84 d13d f3b1 a5bd
000001d0: 4915 c83e 2d17 823e c03c 82bc 3496 683e
000001e0: 82ff 093e aeb6 8a3e c9b2 90be 83d1 c33e
000001f0: 8322 7ebe 6688 c33e dfbe 693e 2f72 ca3e
00000200: cfc1 5cbe 4023 023e f6e3 0bbe c393 853d
00000210: f3be a63d f42a 3b3d 4e09 88be 33fc 6cbe
00000220: e791 b4bd 98d8 e43e 529e 35be 0782 5a3d
00000230: 0b98 b1bc d862 133c f218 a5be 17bc 853e
00000240: 9397 033d 9a79 e53d 9da8 3d3e 640a 3a3e
00000250: 02f4 bf3e 7758 10be 0044 46be f73a de3d
00000260: a4de 15bd 83e3 63bd e446 a13e e6ea a9bd
00000270: cce7 8a3e 76d1 583e 67e9 bc3d 01d8 68bd
00000280: 213e 823e 60aa 9dbe ef87 0e3f afec b3bd
00000290: 6dda fc3d c9b3 1d3e 9cd5 283e 91b7 f1be
000002a0: 65b5 2d3e ec1d 733d 5d91 b03e ceec 543d
000002b0: d2f3 b2be 7867 2c3e fcad 393d 8378 06be
000002c0: 9b8e 0bbe ed69 57be 0252 84be ba8b a23d
000002d0: 0904 7fbe f5f0 373e d29c ee3c db3d 54be
000002e0: 640e 703d 5ffe a53e b81f a4be 74d9 0339
000002f0: 112f 9d3e 113a bcbe f895 b7bc 1a20 be3e
00000300: 7422 9a3d 43ae d8bc 51dd 0cbe 95a1 c6be
00000310: de2d 963e 321e a7bd ce51 90be b6ba 0ebb
00000320: ab18 e73e 2f42 abbe adc3 cebb 1489 883d
00000330: 7371 e03d cf7a 8ebe ac3d 40bc 2e19 9e3c
00000340: da9c bd3e c64f 983e 0463 0ebe e3ab f73b
00000350: 525c e1bd 86d9 bf3e 34e1 89be 484e 243e
00000360: 4b27 c3bc 6ce6 a23e 989e 823e 1ea5 e53e
00000370: 87e8 0bbd fac8 0b3d 6238 b3bd e0f4 373e
00000380: e843 903e 334c a5bb e9ee 84be 2d5b b1be
00000390: 97ff 07be fe26 8a3e e220 eabd 070e dabc
000003a0: 3631 c73e 1a4d 813e bab3 f13d 91a1 dfbd
000003b0: 6efe e9bd 1b3e 35bd 9f79 9ebe 3150 6d3e
000003c0: 2ef6 283c 3876 913e 089d 47be 7360 09be
000003d0: c3e6 96be d4c0 1ebe bfcd 45be 09e0 5fbe
000003e0: 9129 81be 3e56 f9bd 7759 88bd 21b1 b43b
000003f0: 8320 91be fc1e 473e 6898 4c3e 6fc6 383e
-0.14058656 0.2260087 0.35142636 -0.25331903 0.10155424 -0.1515299 0.23970634 -0.33814383
-0.121043764 0.24889833 -0.2726622 -0.12457752 -0.15105255 -0.4229788 -0.24251878 -0.19701675
-0.00825756 -0.31410572 -0.12911826 -0.051017106 -0.38366944 -0.24275282 -0.29902887 0.04841687
0.07906522 -0.15240219 0.15349253 0.382331 -0.1569798 -0.117702715 0.2143979 0.2691798
0.24332623 0.2642748 0.05993146 0.49794763 0.115623355 -0.4354126 -0.26323643 -0.26456967
0.06416355 -0.09516705 -0.53709084 0.02515347 -0.34398955 -0.028799796 0.2982137 0.29041496
-0.17106919 -0.15887947 -0.28701594 -0.30928952 0.289008 -0.13444321 -0.10524659 0.34529743
0.37723982 -0.11701506 -0.34630477 -0.030748459 0.25034672 -0.3469609 -0.06577888 -0.41324726
0.0498385 0.31884137 0.06713504 -0.19621807 -0.16634963 -0.12592742 0.034745835 -0.4134387
-0.16441122 -0.14643714 -0.085483044 0.38281852 0.005327662 0.3287297 0.26491404 -0.30050132
0.019459145 -0.25930417 0.17589831 -0.018497499 -0.13004245 0.27837938 0.14144336 0.11799289
0.4316091 -0.19103152 0.078443825 -0.22324929 0.24735218 0.27804956 -0.19618803 0.09136423
0.16950111 -0.011289897 0.049772393 -0.013728774 0.046776943 -0.24753706 0.0887482 -0.0681498
0.1871269 0.26314342 -0.17198847 -0.12033163 0.26294568 -0.07775168 -0.112736225 -0.41737047
-0.017337734 -0.19892474 0.102303594 -0.08090582 0.3907874 0.25408307 -0.015898108 0.22713548
0.13476375 0.270925 -0.28261402 0.38245782 -0.24817853 0.3819 0.22826718 0.3954024
-0.21558307 0.1270876 -0.13661179 0.06522324 0.081418894 0.04569526 -0.265696 -0.23143081
-0.08816891 0.44696498 -0.17736176 0.05334666 -0.021678945 0.008995734 -0.32245594 0.26120064
0.032126974 0.11204834 0.18521352 0.18168026 0.3749085 -0.14096247 -0.19361877 0.108510904
-0.03658928 -0.055636894 0.31499398 -0.082967564 0.27129972 0.21173653 0.092242055 -0.056846622
0.25438026 -0.30794048 0.5567617 -0.08785378 0.12346349 0.15400614 0.16487736 -0.47210363
0.16963728 0.059354708 0.34485903 0.051983647 -0.34951645 0.16836345 0.04533194 -0.13131909
-0.13628618 -0.21036501 -0.25843817 0.07936807 -0.24903883 0.17963012 0.029127512 -0.20726721
0.058607474 0.32420632 -0.3205545 0.00012574141 0.3069997 -0.3676305 -0.022410378 0.37133867
0.07526103 -0.026450282 -0.137563 -0.38795152 0.2933187 -0.08160056 -0.28187412 -0.002177877
0.45136008 -0.33448932 -0.0063099475 0.066667706 0.10959139 -0.2782807 -0.011733454 0.019299116
0.3703373 0.29748362 -0.13904959 0.0075583323 -0.11003937 0.37470645 -0.2692963 0.16045487
-0.023822447 0.31816423 0.25511622 0.44852537 -0.034157302 0.034127213 -0.087509885 0.17964506
0.28176808 -0.005044484 -0.25963524 -0.34639874 -0.13281094 0.26982874 -0.11432053 -0.026618017
0.38904732 0.25254136 0.11801858 -0.10919488 -0.11425482 -0.04424868 -0.30952165 0.23175122
0.0103126 0.28410506 -0.19493496 -0.13415699 -0.29472932 -0.15503246 -0.19316767 -0.21862806
-0.25227025 -0.121746525 -0.06657689 0.0055142795 -0.28345117 0.19445413 0.19980013 0.18044446

StatefulPartitionedCall/lyt_3/denoiser_7/multi_head_self_attention_10/dense_49/BiasAdd/ReadVariableOp:0 f4 [16]
00000000: a7fa 8bb9 b2e6 a3bb cd92 8fbc 995c 79bc
00000010: 0cf8 173b f0fb 2dba c01b 05bd 5e63 25bd
00000020: fd07 5abc 20f2 2dbc 2792 2dbc 2710 7dbc
00000030: eaeb 52bc 95b3 b5bc 1d53 aebb 3911 c1ba
-0.00026698897 -0.0050018663 -0.017526055 -0.015219831 0.002318862 -0.0006636968 -0.032497168 -0.040377967
-0.013307569 -0.010616809 -0.010593927 -0.015445746 -0.012873629 -0.022180358 -0.0053199665 -0.0014729864
