weights/lyt_net_lolv2_synthetic_640x360.onnx (onnx, 306016 bytes, 62 tensors)

scales__499 f4 [4]
000000 00 00 80 3f 00 00 80 3f 00 00 00 40 00 00 00 40
       1.0 1.0 2.0 2.0

const_fold_opt__984 f4 [32, 1, 3, 3]
000000 9b 69 ce 3c e1 82 1a be 90 62 e5 bd 19 3f 99 bd
       0.025196841 -0.15088989 -0.1120044 -0.07482738
000010 7e 5e 3a 3d 20 f5 32 be f4 f6 96 3d be fb e2 3d
       0.04550027 -0.1747632 0.07371321 0.11083172
000020 09 f7 b0 bc 40 18 bf 3c db 0e 2d be 5d 65 ac 3d
       -0.02160217 0.023326993 -0.16900198 0.08417771
000030 79 50 a8 bd c9 16 13 be 49 7c e9 bd d0 e2 d3 3c
       -0.08218474 -0.1436416 -0.11400659 0.025864989
000040 8c 9c c2 bd 1f 3d e7 3c ca 17 f7 3d 5c 5f 09 ba
       -0.09502515 0.028227387 0.12065084 -0.0005240345
000050 99 c1 8c bd c0 35 20 3e 36 8e 6d 3e 6a 1e bc bd
       -0.06872863 0.15645504 0.2319878 -0.091854885
000060 da e4 a3 bd 40 51 5e 3d 7b 04 63 bd cc cd 20 bd
       -0.08002634 0.054276705 -0.055424195 -0.039258763
000070 6b d3 11 3d e7 c7 af bc 24 cd 01 be b7 26 09 3c
       0.035602015 -0.021457626 -0.12675911 0.008371047
000080 cc f2 0e 3d 69 e9 aa bd c9 8c 05 be d4 9e f3 bc
       0.034899518 -0.08345301 -0.13041987 -0.029738821
000090 0d f7 c6 3d 56 91 2b 3d 66 33 a7 bd 33 80 db 3c
       0.0971509 0.04188665 -0.081641 0.026794529
0000a0 48 4b a1 3d 0c 7b 80 bc a8 58 05 be ac 10 16 3e
       0.07875687 -0.015683673 -0.13022101 0.14654797
0000b0 8e 3c de 3c f9 1c 85 3b b9 85 d1 bd a2 f0 ad bd
       0.027128484 0.0040622917 -0.10230584 -0.08493163
0000c0 40 6c 4e be 6e 22 bf bd 20 9b fd 3c 36 81 cb bd
       -0.20158482 -0.09332739 0.030957758 -0.099367544
0000d0 3a f0 0e be 32 9a bd bd 5c af 00 be 1a 15 8c 3d
       -0.13958827 -0.09257926 -0.12566894 0.06839962
0000e0 0e 35 0d bc c4 25 fb 3d 2b bb 8a 3e 9c b5 1c bb
       -0.008618606 0.122630626 0.27095923 -0.0023911959
0000f0 f9 66 2e 3c e0 8d d0 3d 0f 5a af bd e5 80 0a 3b
       0.010644668 0.101833105 -0.08562099 0.0021133956
000100 26 cb 94 bd 44 a7 92 bc 9e 57 14 3d 25 17 18 be
       -0.0726531 -0.017902024 0.03621637 -0.14852579
000110 31 bd 45 bd 02 37 7c bd cd b4 87 3d 3e cf e9 bd
       -0.04827613 -0.061575897 0.06626282 -0.114164814
000120 d0 bb 10 3e 22 50 57 3e cd 02 1c 3d ae fd 6c 3c
       0.14134145 0.21026662 0.03808861 0.014464779
000130 ea 99 55 bc 7e 08 6e 3d 2c 60 8d 3c 07 56 fd 3d
       -0.013037184 0.058113568 0.017257772 0.12369924
000140 73 81 89 3d bf b8 8f 3d 89 6b 12 bd 2e 6b 6a 3e
       0.067141436 0.070176594 -0.035747085 0.22892448
000150 28 ae ce bc 4c ad c6 3b 25 66 dc 3c ea 21 4a 3e
       -0.025229529 0.006063139 0.026904175 0.197395
000160 4d 68 5a 3d 90 4b d8 bd 1b a3 21 3d 01 84 3b 3d
       0.053322125 -0.105612874 0.03946219 0.045780186
000170 d4 6a 06 3c 2c 6a be 3d c4 43 f4 3c 18 d5 df bc
       0.008204181 0.092975944 0.02981747 -0.02732329
000180 92 62 80 3c 98 72 8b bb 9c 5a 0d 3e 5d 3d bd bc
       0.015672002 -0.004255604 0.13804096 -0.02310055
000190 2d e7 ce bc 72 0e 86 3d fe b5 e5 3d 9f 99 93 3d
       -0.025256718 0.06545724 0.11216353 0.07207035
0001a0 5f 8e 07 bd a3 31 2a bd eb 77 40 3d 12 5b 85 3c
       -0.03309476 -0.041551244 0.046989363 0.016278777
0001b0 0f 08 f3 bc 1d 25 5a bd f7 f4 aa bd eb e1 5e 3d
       -0.029666929 -0.05325805 -0.083475046 0.05441467
0001c0 47 65 35 be 0b 12 37 bd f0 1a 7a bd 6c 59 0f bd
       -0.17714415 -0.04469494 -0.061060846 -0.03499739
0001d0 2e fc 4c 3d 48 9d 3e 3d 1a 90 2f 3d f1 be 09 bc
       0.050045185 0.046536714 0.042862035 -0.00840734
0001e0 84 0c 8d 3d a0 a7 f9 be 5c f2 92 3d 22 fb df 3b
       0.06887153 -0.487607 0.07175133 0.0068353573
0001f0 55 18 d0 3d 79 a3 ad bd db 38 8f bd 77 47 e3 3d
       0.10160891 -0.084784456 -0.06993266 0.11097615
000200 13 5d ef 3d b5 85 f2 3d b2 42 91 3d a3 6a f9 3c
       0.116876744 0.11841909 0.07092799 0.030446356
000210 0a 50 b4 bd 44 03 fb 3d 5d 66 e1 3c 30 b0 1a bd
       -0.08804329 0.12256482 0.02751463 -0.03776568
000220 6f 64 d3 3c 2b 31 1a 3d 91 61 15 3e 98 bc 31 3e
       0.025804726 0.037644546 0.14588 0.17357099
000230 51 6a a7 3d 41 5a 93 3d 1a 76 7b bd 74 a0 bd bd
       0.08174575 0.07194949 -0.061391927 -0.0925912
000240 2c 28 a3 bc b3 18 24 3e 26 b7 be 3d af ef a1 3d
       -0.019916616 0.16025047 0.093122765 0.07907044
000250 14 c5 31 3e 12 60 1e 3e 36 25 07 be b0 31 b0 3d
       0.17360336 0.15466335 -0.13197789 0.08603227
000260 b0 87 c6 bd 39 98 22 3c 2a b8 b4 bd 11 c9 ca bd
       -0.09693849 0.009923988 -0.08824189 -0.099016316
000270 a1 1e 26 3c 9c 04 13 be 82 43 73 bd 65 e0 13 be
       0.010139138 -0.14357227 -0.059390552 -0.14441068
000280 d2 fe 2d bc 13 ff aa bd c1 3d c1 3c 07 28 a3 ba
       -0.010619836 -0.08349433 0.023589017 -0.0012447842
000290 dc 13 54 bd 27 bd 2f bd d1 1b 43 3c e5 f5 15 bd
       -0.051776752 -0.042905 0.011908487 -0.036611456
0002a0 a2 d0 88 3d c6 74 2a 3e 18 99 35 3d d2 c9 f7 bd
       0.066804186 0.16646108 0.044335455 -0.12099041
0002b0 b1 9c 27 bd 34 8a 58 bd ed 9c 95 3c 35 90 2c 3e
       -0.040920917 -0.052866176 0.018263305 0.16851886
0002c0 a7 33 22 be 6b 30 cc bd 81 06 9c bb 10 6e 78 bd
       -0.15840016 -0.099701725 -0.0047615175 -0.06065184
0002d0 6e be bb 3d 3e 2b d3 bc 4c 1a 2d 3d b3 5e 46 be
       0.09167181 -0.025777455 0.042261407 -0.19372062
0002e0 6c cd d3 3c 87 54 51 3d 08 a6 ca bc 19 4f b9 3c
       0.025854789 0.051106002 -0.024737373 0.022620725
0002f0 ab e0 4e 3c 7e e0 95 3c 29 ee b9 3b 32 91 87 bd
       0.012626807 0.018295523 0.005674143 -0.06619491
000300 ef 9f d2 bc 26 ce 62 3e a2 24 64 bd 5b 93 90 3d
       -0.025711028 0.22148952 -0.055699 0.07059356
000310 3f ac 53 bd 6b b7 73 3d ec 63 16 be 4b 37 19 be
       -0.05167794 0.059501093 -0.14686555 -0.14962499
000320 3d 98 ea 3b e6 e6 31 be 0c 0e cd bd d2 41 1d be
       0.0071592615 -0.17373237 -0.10012445 -0.1535714
000330 07 50 d8 bd 18 99 1b 3c c1 19 a9 bb ed db c1 3c
       -0.10562139 0.00949695 -0.005160541 0.02366444
000340 e1 e1 17 3c 5d eb 6d 3c 1a e9 0c 3e 28 0a 53 3e
       0.009270162 0.014521447 0.13760796 0.20609343
000350 71 50 9c 3d ef 71 2e bd dc 97 a8 3d 63 95 16 bc
       0.076325305 -0.042589124 0.0823209 -0.00919089
000360 69 58 83 bd 41 3c c2 3d c3 fc 76 bd f2 cf b5 3d
       -0.06413347 0.09484149 -0.060299646 0.08877553
000370 c3 f5 93 bd a8 7d 16 be 04 d4 c8 bd 4c 79 4e bd
       -0.0722461 -0.14696372 -0.09806064 -0.050408646
000380 a1 1f 83 bd da 62 24 3d 07 ac 82 3b 02 68 26 be
       -0.06402517 0.040133335 0.0039877924 -0.16250613
000390 74 84 61 bd 33 03 74 bd 59 87 23 bd 3d c6 22 be
       -0.055057958 -0.059573364 -0.039924 -0.15895934
0003a0 db 62 06 bd 8b 00 60 3d d1 6e 39 3d 90 30 97 bd
       -0.03280912 0.054688018 0.0452717 -0.073823094
0003b0 99 59 d7 bb 8e 00 97 bd 28 44 36 bc a1 0d 9c 3c
       -0.00657196 -0.07373153 -0.011124648 0.019049468
0003c0 a0 1c 5e 3d 40 6f 19 bd 66 fe 7e bd 4f 7a df 3d
       0.054226518 -0.037459612 -0.062254332 0.109120004
0003d0 1d 87 46 bc 4d 1f 9c bd 38 5b f5 bd d4 87 da 3b
       -0.012117174 -0.07623158 -0.11980289 0.006669024
0003e0 33 b5 c8 3c 44 59 97 bd 2f 92 9a bd fe 27 2c 3d
       0.024500465 -0.07390073 -0.075474136 0.042030327
0003f0 7c 00 1e 3d fa 4f ff bd c5 fa 4f 3d b3 50 51 bd
       0.03857468 -0.12466426 0.05077626 -0.05110235

StatefulPartitionedCall/lyt_8/sequential_26/conv2d_166/Conv2D/ReadVariableOp:0 f4 [32, 1, 3, 3]
000000 c1 f5 03 be 46 72 b3 bc a4 d0 c4 bd cd 67 4f be
       -0.12886716 -0.021905076 -0.096101075 -0.2025444
000010 9e 83 64 be 56 31 a3 3b b2 1e 1f be 3a a8 7e bd
       -0.22315833 0.0049802465 -0.15539053 -0.062172152
000020 30 8f b4 3d 31 4b e9 3d b8 e2 8c be c7 00 9e be
       0.08816373 0.11391295 -0.27516723 -0.30859968
000030 9e 28 8b 3e 74 4b f7 bc 8e 7c 3a bd 6e f0 54 3e
       0.27179426 -0.030187346 -0.04552894 0.20794842
000040 41 cf 09 3d a5 cd 1e bd 06 0d 16 3e f7 7b 5f 3e
       0.03364492 -0.038770337 0.14653406 0.21824633
000050 41 17 00 3e 10 66 80 3e 68 f7 9f 3e e1 8b 52 bd
       0.1250887 0.25077868 0.31243443 -0.05140293
000060 7b a9 14 3d f3 e9 d6 3d e4 8e 0f bd 27 4d 58 3b
       0.03629444 0.10493841 -0.03504838 0.003300497
000070 4a e9 82 be 0d 78 13 be 89 41 44 3e 39 be ed 3d
       -0.2556861 -0.14401264 0.19165625 0.11608548
000080 95 97 32 3e 93 f8 3f bd 57 92 4f bd cd e8 d1 3a
       0.17440636 -0.04686792 -0.05067667 0.0016014815
000090 60 95 8b bc b0 88 0c 3e 75 21 88 3c e8 c5 e3 3d
       -0.017039001 0.13724017 0.016617516 0.11121732
0000a0 96 b9 21 3e c6 89 e3 3d 73 76 bd bc 14 e6 30 bd
       0.15793452 0.111102626 -0.02312777 -0.04318817
0000b0 66 00 5a 3d 8e 02 93 3d c8 6e a1 3d 40 44 ac 3d
       0.053223036 0.07178222 0.07882458 0.08411455
0000c0 30 8e 0f 3c 37 7e ab 3d ed ea 08 be a7 ba b2 39
       0.0087619275 0.08373683 -0.13370867 0.00034089872
0000d0 4d c4 da 3d 06 b8 07 3d 14 7a c8 bd bf f9 5f bd
       0.10681973 0.033134483 -0.097889096 -0.054681536
0000e0 04 60 08 be 61 fc d1 bd eb 3b 22 bc 8a 1a e1 3d
       -0.13317877 -0.102532156 -0.009901981 0.1099139
0000f0 16 99 0e be ef 7a ad 3d bf a4 1c 3c 02 1c 9f bd
       -0.13925585 0.08470713 0.009560763 -0.07769014
000100 88 a2 97 bd 53 81 02 bd 20 03 8e bd ff 61 a1 3d
       -0.07404047 -0.031861614 -0.0693419 0.078800194
000110 b2 70 9c bd 7f c2 99 bd 32 ed e8 bc 8a 59 17 bd
       -0.076386824 -0.075078 -0.028433416 -0.036950625
000120 6e a4 83 3c 20 b9 7d 3e 7f d2 8a 3e 0b d5 b2 bd
       0.016069617 0.24777651 0.2711372 -0.08732041
000130 ba ef ef bd 09 85 f7 3d e2 2c 98 be 80 6e 40 be
       -0.11715646 0.12085921 -0.29721743 -0.18792152
000140 93 af 16 bc ed e0 11 3e 28 00 72 3d 97 af 6e 3d
       -0.009197134 0.14245959 0.05908218 0.058272924
000150 7e d9 7e 3d 12 8c 8b bd d1 a2 82 3d aa da 47 3c
       0.062219135 -0.06813826 0.06378711 0.01219813
000160 a6 55 01 3e 44 bd bb bd bf bc a8 3d 2b f8 38 bd
       0.12630329 -0.09166959 0.082391255 -0.045158546
000170 68 61 09 3d c7 31 bd bd d4 c1 89 bd be 5d 11 bd
       0.03354016 -0.0923801 -0.06726423 -0.03548979
000180 d8 79 8a bd 00 ee 85 be e0 c1 01 bd 16 1d cd 3d
       -0.06761521 -0.26158142 -0.031679034 0.10015313
000190 6d 39 54 be 66 bc b5 be 22 d9 3e 3e 0f 6f 49 3e
       -0.20725031 -0.354953 0.18637517 0.19671272
0001a0 25 d6 37 3e ff 63 f9 3d 7e ee 80 bc 2c 4c 76 be
       0.17952783 0.12177276 -0.015738722 -0.24052495
0001b0 24 d3 ca 3b c1 6b 1a be 6a 9e 4a bc 2f 4e 55 bd
       0.0061897207 -0.15080167 -0.01236687 -0.052076515
0001c0 0e ff 9c bc f9 a4 ac bb 75 1a fc 3c e0 57 78 bd
       -0.019164588 -0.0052686897 0.030774334 -0.06063068
0001d0 46 ef d1 bc 86 50 0c be 60 ce 66 be 8b e1 1c be
       -0.02562679 -0.13702592 -0.22539663 -0.15320413
0001e0 63 e4 78 bc 03 fa 4e be db 02 1f be ea 0f 99 bc
       -0.01519117 -0.2021256 -0.15528433 -0.018684346
0001f0 86 1d 13 be 16 52 37 bd 70 a8 88 bc 64 9e ed bd
       -0.14366731 -0.044756018 -0.01668188 -0.11602476
000200 1d 75 49 3d 11 52 02 be de e5 c7 bd 91 2c 0e bd
       0.049183954 -0.12726618 -0.097606406 -0.03471047
000210 bf 2a 2a 3c a1 3b 19 bd 86 02 0b bc 18 c0 77 3e
       0.010386168 -0.037410382 -0.008484488 0.24194372
000220 e2 0c 27 3d a1 d5 b0 3e 24 03 bd bd 17 b1 86 be
       0.04078377 0.34537986 -0.09229115 -0.26306984
000230 8d d4 cd 3d 22 46 0c bd 4d 8e ab be 53 36 6c bd
       0.100503065 -0.03424657 -0.33507004 -0.057668995
000240 af c2 72 3d 43 26 99 3e 17 35 b0 3e c7 92 1c be
       0.059267696 0.29912004 0.34415504 -0.15290366
000250 74 76 dc bd 92 8f 0d be fb 76 6d be db 31 22 bd
       -0.10764781 -0.13824299 -0.23189919 -0.039598327
000260 4f 73 a4 bd 0b 1b a9 bd ab a2 6a 3e 68 17 ee bd
       -0.08029806 -0.08257111 0.22913615 -0.11625558
000270 12 c4 b1 3c 57 69 87 3e 4c c3 cb bc d5 3b aa be
       0.021699939 0.26447555 -0.024873398 -0.33248773
000280 e1 25 05 3e d0 b0 fb bd 98 ab e1 bd f4 34 91 bd
       0.13002731 -0.12289584 -0.11019057 -0.07090178
000290 a8 c3 03 be 53 d8 4e bd e8 b4 a0 bc 03 99 8c bd
       -0.12867606 -0.05049927 -0.019617513 -0.06865122
0002a0 48 3e 73 bd d5 26 98 bd 94 9e 15 bc 34 9e a1 3d
       -0.059385568 -0.074292816 -0.009132046 0.07891503
0002b0 04 40 7c 3d 44 50 24 3e 27 65 df 3d e8 ff bf 3d
       0.061584488 0.16046244 0.10907965 0.09374982
0002c0 ee c0 65 3d 40 d4 b3 3d ec 77 00 3e eb d9 c8 3c
       0.056092195 0.08780718 0.12545747 0.024517974
0002d0 02 28 2b 3c 74 c0 e4 3d f8 82 c0 3d 17 11 c6 bd
       0.01044655 0.1116952 0.0939998 -0.096712284
0002e0 0f ee e3 bd 5a 2a 00 3e cf 0c ce bd 8b d2 d1 bd
       -0.111293904 0.12516156 -0.10061037 -0.10245236
0002f0 fa 53 13 bd 95 48 64 3e a4 b2 ef 3b 4d aa 63 3e
       -0.03596876 0.22293313 0.007314997 0.22232933
000300 c5 60 ea 3d 01 41 04 3e 24 4d 76 3e 0c 94 cd 3c
       0.114442386 0.12915422 0.24052864 0.025095008
000310 71 2d 08 3e bd 57 38 3d 62 72 b3 3d 3c c0 ec 3c
       0.13298585 0.04500555 0.08762051 0.028900258
000320 0e 0c ee bc a6 14 98 be 4c 3b 18 3e 46 94 b2 3e
       -0.029058482 -0.29703254 0.1486637 0.3487875
000330 a4 fa 9e be 38 8f de bd 2f cb ab 3d f4 a9 8f bd
       -0.310506 -0.108671606 0.083883636 -0.07014838
000340 4a 8f 8d 3d 2a 50 b0 be 02 bc 70 3e 1f 7b 05 3e
       0.06912096 -0.3443616 0.2350922 0.13035248
000350 e8 f6 ec 3a e0 4b 37 bd b0 80 b4 3d 76 9a 74 3c
       0.0018078955 -0.044750094 0.08813608 0.0149294045
000360 4b a0 8e bd 62 3e 95 3d a8 e2 67 3d 7c fb e0 3c
       -0.06964167 0.07287289 0.05661264 0.027463667
000370 20 4c 02 be 1e ba 06 be f9 8b 82 3d b7 09 7d 3d
       -0.12724352 -0.13156936 0.06374354 0.061776843
000380 00 77 46 3c 17 7c 19 bc 6f f5 51 bd 2b f6 d9 bd
       0.012113333 -0.009367964 -0.051259454 -0.10642656
000390 90 9a 9b 3d c1 ff 60 bc 5c 2e 81 3d cb 38 02 3d
       0.0759784 -0.0137328515 0.063076705 0.031792443
0003a0 5d 7c e0 bc 80 24 5d 3d dd 17 7f be ed 89 69 be
       -0.027403051 0.053989887 -0.24911447 -0.22806521
0003b0 67 8a b0 3d b8 c2 57 bd e4 27 c8 bd 40 19 13 3b
       0.08620148 -0.052675933 -0.097732335 0.002244547
0003c0 92 06 ca 3d 56 49 3b 3e ce 5d 49 3e 4e fd c8 bd
       0.098645344 0.18289694 0.1966469 -0.09813939
0003d0 82 a8 80 bd 00 db 04 bd c5 ce 3b be 87 f1 02 be
       -0.0628214 -0.032435417 -0.18340595 -0.12787448
0003e0 20 fb d7 bd d4 f8 b5 38 bf 48 55 be 21 62 c9 3c
       -0.10545945 8.6771004e-05 -0.20828532 0.024582924
0003f0 68 15 88 bb 03 22 13 be 18 e7 60 be 67 b3 49 3e
       -0.0041529424 -0.14368443 -0.21963155 0.19697343

StatefulPartitionedCall/lyt_8/sequential_26/conv2d_166/BiasAdd/ReadVariableOp:0 f4 [32]
000000 6a 42 94 bc c5 8c 82 bc aa 5c 73 3c 77 8f 3d bb
       -0.018098075 -0.015936265 0.014853636 -0.0028924623
000010 26 ef 91 bb d5 b6 a8 bb 7a 5a 8c bd 8b 72 0f 3c
       -0.0044535575 -0.0051487484 -0.068531945 0.0087553365
000020 86 a4 28 bd 39 5a 12 bd a3 b1 ad bd 40 c4 1c bc
       -0.041172527 -0.035730574 -0.08481147 -0.009568274
000030 ff 0a a1 3c 34 38 0d bc 4d 5c 7f bc 51 d0 51 bc
       0.019658564 -0.008619357 -0.015585971 -0.012806014
000040 33 07 06 bc c0 2c 0d bc 90 d2 27 bd a9 88 27 bd
       -0.008180427 -0.008616626 -0.040972292 -0.040901814
000050 7b 0a 98 bc 3b a2 71 be 44 cf 25 bc 54 09 5a bd
       -0.018559685 -0.23597042 -0.010120217 -0.053231552
000060 7e 80 ae bc 31 51 c3 bc 98 97 9b bc f6 17 34 bc
       -0.021301504 -0.023842426 -0.018993184 -0.010992041
000070 7a 8b 6f bc bc 7e 4e ba 49 cc 8a bb 53 fe c9 bb
       -0.014620656 -0.0007877161 -0.0042357785 -0.006164351

StatefulPartitionedCall/lyt_8/sequential_25/conv2d_165/Conv2D/ReadVariableOp:0 f4 [32, 1, 3, 3]
000000 55 c0 1c 3e d9 cc 6d 3e 94 96 ed bd 3a e2 8f 3d
       0.15307744 0.23222674 -0.11600986 0.07025571
000010 6f e0 91 3c 72 d3 19 3c 82 9b ae 3d df f3 82 be
       0.017807214 0.009388791 0.085257545 -0.25576684
000020 3e ae f6 bd 36 d4 36 3c 99 4b fa 3d 76 8c 5b 3d
       -0.12044953 0.0111589935 0.1222145 0.05360075
000030 74 a4 4e 3d aa d3 23 bd b4 3e 52 3c 49 33 fd 3d
       0.050449803 -0.03999678 0.012832332 0.123632975
000040 4d 55 7a bc 4f 48 c2 3d 0a a7 73 bd 05 f0 b0 3d
       -0.015279126 0.09486448 -0.059485473 0.0863953
000050 2a 72 84 3a 15 f4 33 3e 98 b8 94 be 77 08 35 be
       0.0010104824 0.17573579 -0.29047084 -0.1767901
000060 ab 6e 1f 3e 46 f5 9d 3d 0e c8 85 3c 56 39 46 3d
       0.1556956 0.07712798 0.016330745 0.048394524
000070 71 69 8d 3c 0d e2 e4 3b e9 5e 4d be 34 55 74 3e
       0.017262192 0.006984955 -0.20055737 0.23860627
000080 c9 7b 17 3e 15 c0 b2 be 43 3a 27 3d cf 12 2e 3e
       0.14793314 -0.34912172 0.040827047 0.16999362
000090 92 17 cf bd 1a 3a 95 be 26 bb d2 3d 7e 62 b3 bc
       -0.101119176 -0.2914589 0.10289602 -0.02189755
0000a0 e4 97 02 be 56 64 91 3e f8 c7 ff 3c 39 e9 32 bd
       -0.12753254 0.28396863 0.031223282 -0.04367945
0000b0 3c cb 9c 3e fc a1 46 bd 48 41 e1 3d 85 c3 57 bd
       0.30623806 -0.048494324 0.109987795 -0.052676696
0000c0 19 17 51 3e 7a d3 86 3e a9 ab e0 3d 36 eb bd bd
       0.20418967 0.2633322 0.109702416 -0.092733786
0000d0 19 1b 41 3e e9 2d 23 be 30 a2 a4 3c ae de cc 3d
       0.18857993 -0.15935482 0.020096868 0.1000341
0000e0 82 4c 14 bd be 51 74 3d 29 9b 67 3d d6 12 df bd
       -0.036205776 0.059648268 0.056544457 -0.108922645
0000f0 b3 6f 66 bd 87 b3 01 3e 5c 02 28 be 27 9a e6 bb
       -0.05625887 0.1266614 -0.1640715 -0.0070374194
000100 a3 01 12 3e f5 9e 58 bb 60 c6 12 be e0 75 8a 3c
       0.14258437 -0.003305373 -0.14333487 0.01690191
000110 95 61 8f 3d 21 13 97 bd 5b 43 f7 bd 81 5a 04 bd
       0.07001034 -0.073766954 -0.12073394 -0.032312874
000120 49 1a a7 bd a5 48 92 3d 4a 7a e4 bd f3 07 8d bd
       -0.0815931 0.07142762 -0.11156137 -0.06886282
000130 29 ad e9 bd 25 99 e6 3d 91 71 82 3c c2 47 b9 bd
       -0.11409981 0.11259679 0.015923293 -0.0904689
000140 30 c8 90 bd 68 a9 a4 3d 1d 37 a5 3d 60 d6 7a 3c
       -0.07069433 0.08040124 0.08067153 0.0153099
000150 89 8a 6e 3d 5d d9 c1 3d 99 c1 cb 3d d9 1f 95 3d
       0.058237586 0.09465287 0.09949035 0.07281465
000160 d3 a8 2e 3e 1d 22 82 3d b5 6c ec 3c 9f 49 73 bd
       0.17056589 0.06354163 0.02886043 -0.059396382
000170 0a 62 0e bd 94 9b 1c be 4a 99 8c be 41 1d 8a bd
       -0.034761466 -0.15293723 -0.274607 -0.06743861
000180 ed fd f8 bd 9b ce 1b be b0 4f 40 3d b3 f3 31 bd
       -0.121578075 -0.15215532 0.046950996 -0.0434453
000190 e0 71 0d be ce 03 cc bd 2a 90 04 bd d2 6d 0d 3e
       -0.13812971 -0.09961663 -0.032364048 0.13811424
0001a0 48 ae 02 3d 2a 4c 90 bd dd a6 dd 3d 1f 3e 45 bd
       0.03190449 -0.07045777 0.10822842 -0.048154946
0001b0 a8 24 43 bd 65 fc 05 bd 4f fd 19 3c 6f e2 94 3d
       -0.04764238 -0.032711405 0.009398772 0.07269751
0001c0 21 e0 08 be 47 c1 1b 3d 67 5d 04 bd b0 91 32 be
       -0.13366748 0.03802612 -0.032315638 -0.17438388
0001d0 dc 6f 88 bd d1 84 e6 3a 03 05 46 bd 3d 02 c9 bb
       -0.066619605 0.001758719 -0.048344623 -0.0061343
0001e0 cd 75 1c 3d e3 cf 7d 3e b5 40 f7 3b 44 fc 02 3e
       0.03819828 0.24786334 0.0075455555 0.12791544
0001f0 17 e1 23 3e 50 6c cd 3d 9c b5 f3 3d 31 03 ff bc
       0.16003834 0.100304246 0.118998736 -0.031129451
000200 d6 8d 43 3e 75 17 2d 3e ef f4 85 3e 64 e8 83 bd
       0.19097075 0.1690348 0.26163432 -0.06440809
000210 3b b2 53 3e bc e8 fc 3d 21 e3 a8 3d 47 26 10 bd
       0.20673458 0.12349078 0.082464464 -0.035192754
000220 87 bd be bd 9b e0 15 bd b6 72 9f 3c b2 e1 2f bd
       -0.09313493 -0.036591154 0.019463878 -0.04293985
000230 b5 44 37 bd 0f ba 39 be e5 9d a1 bd 93 1a 0f be
       -0.04474326 -0.18137382 -0.07891444 -0.13974981
000240 00 e4 df 3c e8 98 37 be 89 9e a1 bd 3d ba 81 bd
       0.027330399 -0.17929423 -0.07891566 -0.0633435
000250 9a d5 6e be 85 95 96 bd dc e8 9d 3d e7 97 c9 bd
       -0.2332367 -0.07352737 0.0771043 -0.09843426
000260 85 d9 be 3d b4 bf 70 3b 64 2e e8 3d 33 72 af 3d
       0.09318832 0.0036735358 0.11336973 0.08566704
000270 96 7f 27 3e 28 c5 0a bd ea 6f e8 3d 61 23 02 3e
       0.16357264 -0.03387943 0.11349471 0.12708808
000280 35 75 26 bd 19 85 32 3e c3 33 01 3b 2f ce 80 bd
       -0.04063912 0.17433585 0.001971469 -0.062893264
000290 7d a4 e4 bc 0a 1f 0f be 8a ad ad bd 4f da 9e 3c
       -0.027910465 -0.13976684 -0.084803656 0.019391207
0002a0 b2 76 ff bc 65 a4 16 be 77 7c 29 3b 1a 45 2d 3d
       -0.031184528 -0.14711149 0.002586154 0.04230223
0002b0 ae dd c8 3d 55 5c 6c 3c ad 36 2d be 35 a7 a9 be
       0.09807907 0.014426311 -0.16915388 -0.3313538
0002c0 00 51 50 3b c7 c5 db bd f1 06 8c be f2 25 a0 bb
       0.003178656 -0.107310824 -0.27349046 -0.004887336
0002d0 39 41 b2 3d 46 69 53 bd 6e f8 e0 3d 01 5e c6 3d
       0.087038465 -0.05161407 0.10984884 0.096858986
0002e0 69 c6 50 3d 68 ff 34 3e 46 7d 6a bb 10 97 51 3d
       0.05097047 0.17675555 -0.0035780235 0.051169455
0002f0 f3 c6 72 3d 1c cf 13 be 68 52 2d be d5 dc 9e 3d
       0.059271764 -0.14434475 -0.16925967 0.07756964
000300 2c f4 4a 3e 44 97 87 3d b3 2f 66 3e 53 6d 34 bd
       0.19819707 0.066206485 0.22479133 -0.044049572
000310 b5 90 9f 3d 6c ad 8d be 67 69 b5 be fe 2d 56 be
       0.077912726 -0.27671373 -0.35431978 -0.20915982
000320 5f 5f 1b bc d8 b4 5d bd 4d 85 41 3e 1a e7 2f 3e
       -0.009483187 -0.054127544 0.18898506 0.17178002
000330 42 90 05 bd d9 18 26 3e 91 5b 8a 3e 18 9c aa 3d
       -0.032608278 0.16220416 0.27022985 0.08330554
000340 10 7c 0b 3e ea 07 4f 3d 18 9e d9 3d b4 f3 ae 3d
       0.13621545 0.050544657 0.10625857 0.085425764
000350 97 a2 45 bd 17 05 9e bd 76 27 25 bd 07 88 74 be
       -0.04825076 -0.077158146 -0.040320836 -0.23880015
000360 b3 4a 14 bd d5 7d ab bd e0 e6 cb bd 3c 51 8e bb
       -0.03620405 -0.0837361 -0.09956145 -0.00434318
000370 fd 64 80 3c a0 3a 32 bd 74 cf 4d be 58 be 31 be
       0.015673155 -0.04351294 -0.20098668 -0.17357767
000380 6d 32 e7 3c 13 2d d9 3e 35 72 db 3d 1a b2 7b 3d
       0.028222287 0.424172 0.10715143 0.061449148
000390 28 ad 11 3d 58 25 8b 3d 85 b9 f1 bd 0b 63 32 be
       0.035565525 0.06794232 -0.11802963 -0.17420594
0003a0 ea be b3 bc 37 2c 8b be 97 f0 24 3d 96 b0 35 3d
       -0.02194162 -0.2718217 0.040268507 0.04435786
0003b0 73 64 f9 3c 13 1d 0e 3e b9 7f bb 3c e0 7e f4 3d
       0.030443406 0.13878278 0.022888051 0.11938262
0003c0 eb 24 2c 3e 42 7c 04 3e bc d9 ae 3d 51 75 1b be
       0.16810958 0.12938026 0.08537623 -0.15181471
0003d0 75 9d d2 3e 04 7a c8 bd 4a 48 a9 bd 4d 62 e6 3c
       0.41135755 -0.09788898 -0.08265741 0.028123045
0003e0 c1 33 14 be 8f 13 df 3d ef e8 2b be 77 3b 22 3e
       -0.14472868 0.108924024 -0.16788076 0.15842997
0003f0 93 7a fb 3c b1 67 80 3d ae a0 3f 3c 48 4c 56 3e
       0.030698096 0.062697776 0.011696024 0.20927536

StatefulPartitionedCall/lyt_8/sequential_25/conv2d_165/BiasAdd/ReadVariableOp:0 f4 [32]
000000 a3 61 cd bc 90 94 94 3b 1a b1 e1 bb 05 89 03 bd
       -0.02507097 0.0045343116 -0.006887567 -0.032113094
000010 08 9e 15 bd 51 ab 03 bc 5a e7 59 bb f9 c7 df bc
       -0.036527663 -0.0080364505 -0.0033249469 -0.027317034
000020 62 c6 07 3c 68 28 b4 bc 0f 08 90 3c 10 f1 c0 ba
       0.008287044 -0.021991923 0.017581968 -0.001472028
000030 c7 db f5 3b 99 fa 38 bb 92 69 a6 bc 0e 3d 72 bd
       0.007503006 -0.002822554 -0.020314012 -0.059140258
000040 37 8e 99 3b d3 23 c3 bd 39 2c 34 3c 41 46 75 3a
       0.004686143 -0.09528317 0.010996872 0.0009356477
000050 b5 f9 df 3c 96 89 f1 bb 1c d7 15 bd 00 d0 c7 ba
       0.02734075 -0.007371138 -0.036582097 -0.0015244484
000060 b1 14 49 be 90 a5 06 bd dd 8f c4 bd 3a ec 96 bc
       -0.196368 -0.032872736 -0.09597752 -0.018423188
000070 85 94 f5 bc ea 7b b6 bc 47 e8 4c bd f8 60 d8 3c
       -0.029978046 -0.022275884 -0.050026204 0.026413426

StatefulPartitionedCall/lyt_8/sequential_24/conv2d_164/Conv2D/ReadVariableOp:0 f4 [32, 1, 3, 3]
000000 90 82 2f 3d 39 79 ba 3d 1e ed 60 bd bc a2 11 3e
       0.042849123 0.09105153 -0.054913633 0.14222234
000010 bb 74 83 be 41 4f b0 bc 2f 81 83 3c f9 38 c2 3d
       -0.25674996 -0.021522166 0.01605281 0.09483523
000020 2c ba 8e 3d b8 79 3e 3d f4 70 e8 3d 3c 76 ca 3b
       0.06969103 0.0465028 0.11349669 0.0061786454
000030 c9 62 80 bd 19 5e cd bc f0 11 2d bc 18 e2 12 be
       -0.06268842 -0.025069283 -0.010563359 -0.1434406
000040 9a 53 8b be 8f 6a a3 3d 1d 6c a1 3c 6b d3 88 be
       -0.2721222 0.07979309 0.019704873 -0.267238
000050 69 78 82 3c b5 8c ae 3d b4 e6 65 bd 72 ef 81 be
       0.015926557 0.085229315 -0.05612822 -0.25377995
000060 b9 a9 8b 3e b6 93 eb 3d ac ba df 3d c1 c1 a8 3b
       0.27277926 0.11502783 0.10924277 0.0051500504
000070 0b 33 14 be d7 e7 11 be 84 87 1f be c0 94 b3 3c
       -0.14472596 -0.14248596 -0.15579039 0.021921515
000080 35 8b 0e be 37 b9 aa 3d 37 0b 05 be 6e ee bb 3d
       -0.13920291 0.08336108 -0.1299256 0.09176336
000090 76 85 10 be b0 e6 1b 3e 60 84 39 3d 62 03 3d bd
       -0.14113411 0.15224719 0.04529226 -0.046145804
0000a0 92 aa 43 3e 47 ca 42 3e 0f 25 b6 bd 5e 41 2e be
       0.19108036 0.19022475 -0.08893787 -0.17017123
0000b0 03 1c 1d be b7 5a 8d 3d e0 73 35 be 26 a6 19 be
       -0.15342717 0.06902068 -0.17719984 -0.15004787
0000c0 db fe 54 bd 3f 14 38 be 03 9a 14 bd 91 2d b9 bc
       -0.05200086 -0.17976473 -0.03627969 -0.022604736
0000d0 e2 13 6a bd d1 b8 e1 3d b2 98 3e bd d2 a7 c0 3e
       -0.057147868 0.11021579 -0.04653234 0.37628037
0000e0 b1 58 1e 3e e3 0e 58 be ec 62 85 bd 7a f7 cc bd
       0.1546352 -0.21099429 -0.065130085 -0.1000814
0000f0 67 9f 05 bc b8 10 59 3d 09 71 85 bd 4f f2 12 be
       -0.00815568 0.05299446 -0.065157 -0.14350246
000100 38 41 1e be f0 08 83 3d 4a 66 2d 3c 3a bb 83 be
       -0.15454566 0.06398189 0.01058347 -0.2572878
000110 91 87 b7 bc 42 69 2d be 08 a6 4b be 73 3e 93 3c
       -0.02240351 -0.16934684 -0.19887555 0.017974114
000120 71 56 c0 bc b0 fc ec 3d 78 93 54 be 02 40 04 3d
       -0.023478718 0.11571634 -0.2075938 0.032287605
000130 77 d4 f5 bd ea 04 67 be c8 bc ea 3d ce a1 e1 bd
       -0.12003415 -0.22560468 0.114617884 -0.1101719
000140 12 cf 60 3d 5a a4 8c 3d 10 9b af 3d a7 20 df bc
       0.054884978 0.06867285 0.08574498 -0.02723725
000150 fb 10 e7 3d 6e c1 fc 3d 7c f5 f4 3d 81 b1 3e 3d
       0.11282536 0.12341581 0.11960885 0.046556
000160 67 2c 58 3e a7 fc 9f 3d b0 00 6c 3d 56 19 2c bd
       0.21110688 0.078118615 0.057617843 -0.04201635
000170 31 b1 e4 bd 32 c8 c4 3d f1 62 6e 3e fe 58 de bd
       -0.11166609 0.09608497 0.2327993 -0.10856818
000180 e3 5f 3c bd bf e3 51 3d 17 8a 55 bd 15 23 de 3d
       -0.045989882 0.051242586 -0.052133646 0.10846535
000190 9d 49 cb bd 00 c8 0e be 85 eb ce bb b0 df 80 3e
       -0.0992615 -0.13943481 -0.006314697 0.2517066
0001a0 da ca 04 3e ee 13 04 3e 3e d6 80 be 11 1b 30 be
       0.12968007 0.12898228 -0.25163454 -0.17197825
0001b0 89 99 82 3d ec 67 0b 3e 99 a7 c2 3d 65 93 87 3e
       0.06376941 0.13613862 0.09504623 0.2647964
0001c0 65 7c 70 bd 34 6f 74 be 2d 4b 16 3e 73 63 13 be
       -0.058712382 -0.23870546 0.14677115 -0.14393406
0001d0 bf 5a 4c be 94 18 75 3d 65 ed c9 3e 87 ca 39 3e
       -0.19956492 0.059837893 0.3943893 0.18143664
0001e0 6c 13 04 be 2a 28 d3 be 1f 66 0a bd 0a e2 a1 3d
       -0.12898034 -0.4124158 -0.033788797 0.07904442
0001f0 a3 49 74 be bf 1b 0e 3e 88 4c c3 3c f9 c7 97 bc
       -0.23856215 0.13877772 0.023840204 -0.018527972
000200 8b e6 7b bd d1 51 74 bd 22 18 08 be 21 e9 5d bc
       -0.06149916 -0.05964834 -0.13290456 -0.013544352
000210 e3 e9 4d 3d fd dd 1d be ca 14 bf bd 87 45 20 3e
       0.05027188 -0.15416713 -0.09330137 0.15651523
000220 27 f9 c3 3d fe c4 d6 3d c9 66 bb 3d 69 8f f4 bc
       0.095690064 0.10486792 0.09150464 -0.02985354
000230 4a 3e f0 3d 3c 4c 2e bd ab 36 4e bc ed ea 57 3d
       0.11730631 -0.04255317 -0.012586276 0.052714277
000240 d8 c4 83 3d 33 1b 2f be 28 4f cb 3d f4 b7 61 3d
       0.06434029 -0.1710022 0.09927207 0.055107072
000250 82 1b 38 3e af a7 0f be ce a3 ce bd 19 8e a0 3d
       0.17979243 -0.1402881 -0.10089837 0.07839603
000260 49 06 8e 3d b9 70 9c 3c 61 eb b6 bc cf 6a ee bd
       0.069347925 0.01909672 -0.022329034 -0.11641466
000270 f2 38 1c be f9 86 53 be 51 77 0d be 72 8a 51 bd
       -0.15256098 -0.20656957 -0.13815047 -0.051157422
000280 fd f0 8c 3d e6 20 1d 3d 48 ee be bd 2d f5 25 be
       0.06881902 0.038361453 -0.09322792 -0.16206808
000290 3d d4 96 bd cd 22 95 3e 20 c8 a2 bd b4 a9 21 be
       -0.073647 0.29128113 -0.07948327 -0.15787393
0002a0 fa 89 a2 3e a3 d9 ca bd 05 c2 e7 bd 47 32 55 be
       0.31745893 -0.09904792 -0.11316303 -0.2081996
0002b0 69 7a 33 be 24 46 86 be 50 7b 3d 3e d1 cf 7c 3e
       -0.17527165 -0.26225388 0.18504071 0.2468865
0002c0 53 70 16 3e 6a bb a4 3d 27 f3 b9 3d 28 62 44 3e
       0.14691286 0.08043559 0.09079581 0.19178069
0002d0 17 94 e3 3d eb 86 22 be 07 ed c0 bd b8 57 20 bd
       0.1111223 -0.1587178 -0.094202094 -0.039146155
0002e0 20 e8 2c 3e 08 c2 3c bc 16 f6 18 3c 92 0b b3 3d
       0.16885424 -0.01152087 0.009336015 0.08742441
0002f0 a5 43 6c bd 0a 85 5a bd 2f 28 f1 3d fa 04 77 bd
       -0.0576817 -0.053349532 0.117752425 -0.06030748
000300 3e 61 fb 3d 9e d0 a9 bd fd 74 07 3e ba fe df bd
       0.12274407 -0.08291744 0.13228221 -0.10937257
000310 f3 32 08 3e 90 c0 b9 bd 0c 61 74 3c 98 ea 13 be
       0.13300686 -0.090699315 0.014915716 -0.14444959
000320 63 46 aa bc 96 fe 75 3b 41 e6 b4 be d9 df f2 3d
       -0.020785516 0.0037535778 -0.3533192 0.11859102
000330 c9 61 ba 3d e8 00 47 3d 08 b7 04 be de c8 1c bb
       0.09100682 0.04858485 -0.12960446 -0.0023923437
000340 70 2c f4 3d 38 43 8e 3c 4e 00 d4 3d a0 9e 9c 3e
       0.11922538 0.017366037 0.103516206 0.3058977
000350 ac 96 3d 3e 07 41 40 be 26 0c 75 3d 1a 45 81 bd
       0.18514508 -0.18774806 0.05982604 -0.06312008
000360 99 ff 16 3e dc a5 d9 bd 36 6d 6f bb 62 c1 80 3d
       0.1474594 -0.10627338 -0.00365336 0.06286885
000370 d9 02 3e 3e 68 66 22 be 62 20 e9 3d f9 da 99 bc
       0.18555774 -0.15859377 0.1138313 -0.018781172
000380 74 e8 31 be 26 ce 33 bc 4a 9b ce 3d 30 52 05 3e
       -0.1737383 -0.010974443 0.10088213 0.13019633
000390 a7 78 e1 3c 79 5b e1 3d a3 0a 79 3d e9 8f 30 bd
       0.027523352 0.11003775 0.06080116 -0.043105993
0003a0 a7 45 f5 3d 0c 7c 75 bd 5a 1b d0 bd 31 df 53 be
       0.11976176 -0.059932753 -0.10161467 -0.2069061
0003b0 ad eb 17 be 26 61 a1 bc 29 82 aa 3e 7f 7d df 3d
       -0.14835997 -0.019699644 0.3330243 0.10912608
0003c0 f3 30 40 bd fe 59 13 3e 2d 46 0b 3d 6d 94 44 3d
       -0.04692168 0.14389798 0.03400247 0.047993112
0003d0 dd 0f 48 be 50 f2 36 be ab 58 10 3d bf fc 56 bd
       -0.19537301 -0.17865872 0.03524081 -0.05248713
0003e0 82 7f 4b be 36 9a be 3c 08 b3 37 be 54 f4 92 3d
       -0.19872859 0.023266893 -0.17939389 0.07175508
0003f0 00 37 9a bc 32 c5 2c 3d bc 01 b7 3d ff f9 38 3d
       -0.018825054 0.042180248 0.08935878 0.04516029

StatefulPartitionedCall/lyt_8/sequential_24/conv2d_164/BiasAdd/ReadVariableOp:0 f4 [32]
000000 de 2d 0d 3e 34 6d 80 be da cc 5e bd 40 9d 47 be
       0.13787028 -0.25083315 -0.05439458 -0.1949358
000010 c3 a6 24 3d fe 74 78 be d8 f4 93 3b e4 50 20 be
       0.0401981 -0.24263379 0.0045152716 -0.15655857
000020 e1 74 8e be 03 95 8c be 25 52 ee bb f9 8c cd 3a
       -0.27823547 -0.27457437 -0.007272976 0.0015682272
000030 10 bd 65 bd 3e 0e e9 3d 3f 8a 56 be a1 c8 2b 3e
       -0.056088507 0.113796696 -0.20951174 0.16775753
000040 10 a3 78 3d 5f a5 28 be 44 19 88 be f9 3b 85 bd
       0.060702384 -0.16469334 -0.26581776 -0.065055795
000050 c2 b4 d6 bc 47 a3 f3 3d ca 51 41 be b3 59 8b be
       -0.026209239 0.11896377 -0.18878856 -0.27216873
000060 b5 11 87 3d 9f d7 46 3e d6 ba 01 3e 46 42 2c be
       0.06595174 0.1941819 0.12668929 -0.16822156
000070 44 06 01 bd a4 77 eb 3d 52 1a 28 3e 11 ec 70 3d
       -0.031500116 0.11497429 0.1641629 0.05881888

StatefulPartitionedCall/lyt_8/multi_head_self_attention_26/dense_123/Tensordot/ReadVariableOp:0 f4 [32, 32]
000000 85 f9 2d be 93 7b d1 bd 79 6a 5f bd cd c6 43 bc
       -0.16989715 -0.10228648 -0.0545449 -0.011949253
000010 96 62 73 be d3 ac 66 be 6a 8e 07 3f b2 b2 3b 3e
       -0.23768076 -0.22526865 0.5295168 0.18329886
000020 20 06 01 3e 33 c4 5a be 78 83 1d bd f9 7d 82 bb
       0.12599993 -0.21363907 -0.038455456 -0.0039823023
000030 66 1d 3a bd af 76 70 be f4 ab 2f 3e 64 0d ed bd
       -0.045438193 -0.23482774 0.17155439 -0.1157482
000040 2f fa 8b be 2e c9 e0 3d a5 d4 5b be 23 7e 50 3e
       -0.27339312 0.10975872 -0.21467836 0.20360617
000050 b7 c4 4f be 07 24 69 bd 16 5a 5a bb b1 c7 5d 3e
       -0.20289885 -0.056919124 -0.0033317856 0.21658207
000060 f9 04 b8 bb ea 6c 76 3e d9 d3 de 3d 60 52 52 be
       -0.005615827 0.24064985 0.108802505 -0.20539236
000070 f5 9b 15 bd 58 68 73 bd 76 eb 84 3d 08 02 cc 3d
       -0.036525685 -0.05942568 0.06490223 0.09961325
000080 18 c5 31 be 09 9d af 3d 9e 04 28 be 93 87 da 3d
       -0.17360342 0.08574874 -0.16408011 0.1067039
000090 9d 1d 6c be 84 78 f3 bd 32 c6 2f be 33 c1 2c be
       -0.23058172 -0.11888221 -0.1716545 -0.16870575
0000a0 05 32 15 3c 66 55 21 3e e4 83 98 3c ed 8e 16 bd
       0.009106164 0.15755233 0.018617578 -0.0367574
0000b0 1d b7 f7 3d b9 3a a0 bd c8 0b e2 bd cc d1 cf bd
       0.12095473 -0.078237005 -0.11037403 -0.101474375
0000c0 df 5f f7 bc bd 4c 63 3e c0 59 04 bf cc 13 a8 bd
       -0.030197082 0.22197242 -0.5169945 -0.08206901
0000d0 2f 0e 76 be 2c 9f dd 3d b7 04 b4 3d ec 2c 17 3e
       -0.24028848 0.10821375 0.08789962 0.1476323
0000e0 38 56 7e 3d 72 61 ca 3d f0 52 8a bd 69 31 5a 3d
       0.062093943 0.098818675 -0.067541 0.053269777
0000f0 7a a7 84 be cc cc 9c 3b 3b 7b 82 be 8c 3e 41 3e
       -0.25909024 0.004785156 -0.25484642 0.18871516
000100 bf 2d 88 be 85 aa 9e 3e f0 d7 85 3e aa 0a 10 3e
       -0.26597401 0.3098947 0.2614131 0.14066568
000110 da 98 95 3d cc f1 79 bd b0 4f be ba a8 c6 5a 3d
       0.07304545 -0.06102161 -0.0014519598 0.05341211
000120 61 7e 3f be bb f5 49 be f4 45 17 be 12 fb 2c be
       -0.18700553 -0.19722645 -0.14772779 -0.1689265
000130 17 7e e6 3d 63 42 71 3e a5 fb 90 3d fb 76 54 be
       0.112545185 0.23560481 0.070792474 -0.20748512
000140 5f 59 13 be b9 bf a4 3c f3 cb 88 be 8b 64 1f be
       -0.14389561 0.020110952 -0.267181 -0.15565698
000150 1e 3d 0b be 4a 16 28 be 34 81 4c bd 10 a8 4a 3e
       -0.13597533 -0.16414753 -0.049927905 0.19790673
000160 47 e8 bf be c8 45 ab 3e dc 67 91 be ef cb 05 bd
       -0.374819 0.33451676 -0.2839955 -0.03266519
000170 5e d4 f2 3c 87 98 00 be 4e f6 30 be 7b b4 f1 bd
       0.02964228 -0.12558185 -0.17281458 -0.11802002
000180 7b bb bb bd 89 61 03 be 58 05 8c 3e 11 78 2d bd
       -0.091666184 -0.12830175 0.27347827 -0.042350832
000190 e3 2c 7e be c6 8b a9 3c 27 56 c3 3e b7 5b 80 3c
       -0.2482181 0.020696532 0.38151667 0.015668733
0001a0 c9 a4 a5 be e7 7c a4 3e 3f c8 bc bc dc 21 a7 be
       -0.32352284 0.32126543 -0.023044704 -0.3264302
0001b0 33 dc 75 be 33 24 b9 bc 51 94 fc bd ea d3 75 be
       -0.2400978 -0.022600269 -0.123329766 -0.2400662
0001c0 94 41 94 be 8e 4d 17 be d7 81 23 3e 8f 08 3c 3e
       -0.28956282 -0.14775679 0.15967499 0.1836264
0001d0 af f0 1e 3e 5f b0 23 3e 72 23 a4 bd 27 55 86 be
       0.15521501 0.15985249 -0.08014573 -0.2623684
0001e0 fe f2 6d be 4c 98 5a bd 03 cd 1d bc cd 9d 80 3e
       -0.23237225 -0.053367898 -0.009631398 0.25120392
0001f0 5f 38 3c be 96 8a 05 be 8c 8b 20 3e 87 0d 3d bc
       -0.18380879 -0.13041148 0.15678233 -0.01153887
000200 9a 6d 60 be 66 b1 17 be 77 23 46 be 01 11 86 3e
       -0.2191681 -0.14813766 -0.19349466 0.26184848
000210 37 ea 19 bd 22 a0 8e be 0c 5f 81 3b b1 fd 4d 3e
       -0.03757688 -0.27856547 0.003948098 0.20116307
000220 11 b7 5f be 81 14 a5 3b 72 59 57 3e e8 54 b6 bc
       -0.21847178 0.0050378446 0.21030214 -0.022257283
000230 37 bb 93 3e d0 6d 0a 3e 1a 24 82 bd 4b 33 9a 3d
       0.2885377 0.13518453 -0.06354542 0.075293146
000240 81 2c b2 bd 14 60 92 3e e9 21 93 3a ba c3 09 3e
       -0.08699895 0.28588927 0.0011225316 0.1345357
000250 cd 58 ba 3d e0 1e 21 be 26 e5 13 3e 75 e6 50 be
       0.09098969 -0.15734434 0.14442882 -0.20400412
000260 5b e6 ad 3d 74 6e d8 bc 0e 8f 0f be 18 d3 2f 3e
       0.084912024 -0.026419856 -0.14019415 0.1717037
000270 d3 82 b1 3e cc 44 d2 be 2b e9 97 3e b7 69 13 3e
       0.34670123 -0.41068113 0.2967008 0.14395796
000280 db 67 b6 bd b8 a8 8a be cc 4b 31 3e 1c a5 c5 bd
       -0.089065276 -0.27081847 0.1731407 -0.09650633
000290 45 59 63 3e bd 9d 09 3e 86 59 99 be cf 36 e6 3d
       0.22202022 0.13439079 -0.29951113 0.11240923
0002a0 c7 4b 8e 3d 97 29 f6 bd e0 36 e8 bd b7 d1 a9 3e
       0.06948047 -0.120196514 -0.113385916 0.33167812
0002b0 1a 13 f3 3e 3c b9 35 3d 67 28 69 be 7e 83 29 3e
       0.4747551 0.044366106 -0.22769319 0.16554067
0002c0 32 04 88 3e 5d df 23 be cb 81 3c 3e de e4 10 bd
       0.265657 -0.16003175 0.18408887 -0.035374515
0002d0 2a d2 61 be ab 7d 19 bd f9 34 6d 3b be 38 84 3e
       -0.22052827 -0.037473362 0.0036194904 0.2582454
0002e0 dc d8 bf 3d e0 07 cc 3c 28 b4 82 3e db d6 4e 3d
       0.093675345 0.024906099 0.25528073 0.05049787
0002f0 08 cc 85 3d f6 c4 89 be 20 0d 11 3e 8a 75 5c 3e
       0.065330565 -0.26908082 0.14165163 0.21529213
000300 c4 82 18 be f6 a7 be bb 2b 29 a2 3c 21 d6 61 3c
       -0.14893633 -0.0058183623 0.019795021 0.0137839625
000310 7e 1e f8 3d 15 c1 1c 3e b1 33 74 3d 33 f9 12 bd
       0.12115191 0.1530803 0.05961961 -0.035882186
000320 c6 15 0e 3e e7 85 7f be b6 a6 16 bd 12 9c 06 3e
       0.13875493 -0.24953423 -0.03678008 0.13145474
000330 66 76 65 be e6 62 00 3e 28 48 a5 3c 5d 4c 58 be
       -0.22408447 0.12537727 0.020176008 -0.2112288
000340 23 cb 7c 3e 27 58 36 be ee 87 13 3d 31 d7 30 3e
       0.24686866 -0.17807065 0.036018305 0.17269589
000350 3a b4 d7 3e 69 86 42 be e8 db df 3d 78 5c 3d be
       0.4212969 -0.18996586 0.10930616 -0.18492305
000360 6f 2a c4 3d a6 e6 41 3d 46 94 88 3e ff 46 ee 3c
       0.09578406 0.047339104 0.26675624 0.029086588
000370 7b 2f ee 3e 62 f5 20 3d fa 02 38 3e 84 4b 45 3e
       0.465206 0.039296515 0.17969885 0.19267088
000380 52 d1 f8 3d 21 e7 83 3e 9f 95 02 be 8f ff 37 bd
       0.121493 0.25762275 -0.12752388 -0.044921454
000390 58 18 15 be 35 b7 c3 3d 08 1a d0 bd dc 34 53 3e
       -0.14560068 0.09556428 -0.10161215 0.20625633
0003a0 90 65 7b bd cc 5a 82 be d1 a2 e7 bd 60 8c 12 be
       -0.061376154 -0.25459898 -0.11310352 -0.14311361
0003b0 fa 14 05 3e e9 7a ec bc 9f ba 94 bd d5 a0 bb bd
       0.12996283 -0.028867202 -0.07262158 -0.09161536
0003c0 f1 94 22 be 62 98 90 be 8a 94 96 3e db 24 55 3e
       -0.15877129 -0.2824126 0.294102 0.2081484
0003d0 71 37 eb 3d d2 35 13 3e f5 a3 05 3e be 1e 23 3d
       0.11485184 0.14376 0.13050826 0.03982424
0003e0 9d d9 96 bd 39 85 c6 bd b5 f3 3b be df da 83 bd
       -0.07365725 -0.09693379 -0.18354686 -0.06438231
0003f0 35 5c a6 be db 0b eb bc 76 b4 ca bd 20 d9 f0 3d
       -0.32492223 -0.028692177 -0.098977014 0.11760163

StatefulPartitionedCall/lyt_8/multi_head_self_attention_26/dense_123/BiasAdd/ReadVariableOp:0 f4 [32]
000000 94 2d 9b bd c8 df 48 bd af 73 bd bd c7 02 1c be
       -0.07577053 -0.04904154 -0.092505805 -0.15235434
000010 f1 dd 1a bd 38 75 0b be 0a 0d 85 bd 19 36 0e be
       -0.037809316 -0.13618934 -0.06496628 -0.13887824
000020 75 b7 d8 bd 76 a9 52 3d 6b 2b 7a bd 6b 61 70 3c
       -0.10581867 0.05143114 -0.061076563 0.014671664
000030 af 8b 91 3d d9 55 8d bd a4 9d 09 be 8f 27 b1 3d
       0.07106721 -0.0690114 -0.13439041 0.08650123
000040 88 43 28 bd c4 ee 0c be 43 dd 50 3d e5 e0 c7 3d
       -0.041080028 -0.13762957 0.05099226 0.09759692
000050 6f c0 00 3e 28 f3 a9 bd 98 84 03 be 0d 30 0c bd
       0.12573408 -0.082983315 -0.12843549 -0.034225512
000060 23 c0 44 3d 6a a9 c9 3d dc 5b 34 3b ee d7 0b be
       0.0480348 0.09846766 0.0027520573 -0.1365659
000070 92 c0 2a 3d b2 be 1f 3d 68 90 a8 bc ac b7 7d 3d
       0.041687556 0.03900022 -0.02057667 0.06194274

StatefulPartitionedCall/lyt_8/multi_head_self_attention_26/dense_122/BiasAdd/ReadVariableOp:0 f4 [32]
000000 3b a2 31 3d 5c c1 10 3d cc fe c6 bd ba b8 bc bd
       0.043367606 0.035340652 -0.097165674 -0.09214921
000010 c8 44 9a bd d8 27 ad 3d 9a 09 84 bb 5c 37 02 3e
       -0.0753265 0.08454865 -0.004029465 0.1271643
000020 cf e2 2d bd c8 9a 2a bd 16 ac a5 3c 3a 53 80 bd
       -0.04245263 -0.041651517 0.020223659 -0.06265874
000030 72 df 45 3d 34 a9 c9 3d 67 23 3a 3d dc 8c 0a bd
       0.048308797 0.09846726 0.04544392 -0.03382574
000040 5e 4b 37 bc dc 63 7c bd 02 e3 9b bd 12 b3 0a bb
       -0.0111874025 -0.06161867 -0.07611658 -0.0021163863
000050 1d 4c 5a bd a2 f0 81 3d 52 87 34 bd 2b 1a e3 bc
       -0.053295244 0.06344725 -0.044074364 -0.027722439
000060 f8 f2 46 3c 9b 70 54 bc 3c 67 95 3c 28 c2 a8 bd
       0.012142889 -0.0129663 0.018237703 -0.08240157
000070 49 8b 72 3d 78 4d ce bc 35 03 b4 bd ea 18 2d 3d
       0.059214864 -0.025183424 -0.08789674 0.042260088

StatefulPartitionedCall/lyt_8/multi_head_self_attention_26/dense_121/BiasAdd/ReadVariableOp:0 f4 [32]
000000 63 9a 82 3a 5c 65 e7 38 57 63 ce b7 27 0c 83 39
       0.0009964224 0.00011033818 -2.4603372e-05 0.0002499532
000010 b6 1f a6 39 30 df 50 b9 27 df 35 38 e0 d2 0c 39
       0.00031685614 -0.0001991957 4.336159e-05 0.00013429997
000020 bc 31 e1 3a 42 10 5e ba a7 0d ef 3a 49 0a 9b 3b
       0.001718096 -0.00084710505 0.0018238322 0.0047314507
000030 e5 c7 23 3b 50 39 f2 ba c1 2b 17 bb 0a 9d cb b9
       0.0024990973 -0.0018480215 -0.002306685 -0.0003883618
000040 16 01 a3 b8 e8 ec 2c ba 5d a8 21 39 d5 a4 cb 37
       -7.772648e-05 -0.0006596581 0.00015416877 2.4276242e-05
000050 ba e3 9e b9 7f e5 5f b9 ad 78 6e 37 58 21 82 b8
       -0.00030305778 -0.00021352431 1.42140025e-05 -6.205094e-05
000060 ce 27 21 3a 48 e4 df 39 35 4e db b9 d1 06 e1 b8
       0.0006147594 0.00042703957 -0.00041829204 -0.00010730106
000070 02 66 2b ba 43 69 81 b9 40 e9 42 39 f3 03 08 ba
       -0.00065383327 -0.00024683223 0.00018588174 -0.0005188577

StatefulPartitionedCall/lyt_8/multi_head_self_attention_26/dense_120/BiasAdd/ReadVariableOp:0 f4 [32]
000000 4f b2 31 bf 79 dd 18 bf 86 7e 27 3f 66 0a 28 bf
       -0.694127 -0.5971294 0.65427434 -0.65640867
000010 3f 92 32 3f 36 1d 06 bf 15 26 2d 3f c3 92 2f 3f
       0.69754404 -0.5238832 0.67636234 0.68583316
000020 35 2c 2d 3f 64 9a 53 3f db 25 d3 3e b0 21 62 3f
       0.6764558 0.82657456 0.4123982 0.88332653
000030 ea ba 63 3f ee 31 e5 3e a3 ae 3c bf cf eb 5c 3f
       0.88957083 0.44764656 -0.73703974 0.86297315
000040 6f 15 e2 3e 79 bf b8 be fc db 03 bf 28 07 99 3e
       0.44156978 -0.36083582 -0.51507545 0.29888272
000050 20 9b 42 3e e4 92 4b bf 6e dd 9a be f2 c3 6b 3e
       0.19004488 -0.7952101 -0.30247062 0.23023966
000060 fc 61 82 3e 5d 87 12 be ed eb 88 3e e0 35 3e be
       0.2546538 -0.1430945 0.26742497 -0.18575239
000070 7b 25 f4 3d 53 c2 6f bd f2 81 c1 bd ce c9 14 be
       0.11921211 -0.05853493 -0.09448613 -0.14530107

StatefulPartitionedCall/lyt_8/msef_block_8/se_block_8/dense_125/MatMul/ReadVariableOp:0 f4 [2, 32]
000000 49 be 11 bd db bf c5 3d 67 3f a5 be 67 91 7e be
       -0.03558186 0.09655734 -0.32274935 -0.24860154
000010 c5 36 12 be 9a 1f dd bd 40 05 5a be 66 f9 24 be
       -0.14278705 -0.10797043 -0.21291065 -0.16110763
000020 f2 1f 6c 3e b3 e0 14 be f5 5b bb 3c d0 06 3c 3e
       0.23059061 -0.14538841 0.022870997 0.18361974
000030 58 e5 a3 3e 72 ac 42 3e 24 bc e0 3d f0 04 f9 3d
       0.32010913 0.19011095 0.10973385 0.12159145
000040 06 c6 1f 3e 17 67 80 bd 50 87 fc 3e c4 45 ed 3d
       0.15602884 -0.06269663 0.49321985 0.11585572
000050 4e af 4a 3b 6d da 8b 3e b2 a5 53 bb 74 cd ba 3e
       0.0030927244 0.27315083 -0.0032294807 0.36484873
000060 60 eb 84 3e 75 1e a0 3d fb 6c f0 3d cb ef 63 bc
       0.25960827 0.07818309 0.117395364 -0.013912152
000070 3e 2f 31 be 39 90 67 3d 6e 6e 98 be 6a c3 af 3e
       -0.17303178 0.056534026 -0.2977175 0.34328777
000080 aa 52 85 3d 85 b7 8a 3c 3a f1 9d 3e c8 c6 c9 3e
       0.065099075 0.016933212 0.30848104 0.3940947
000090 1a 39 47 be 86 0a bf 3c 41 78 c0 3e ab 2c 13 3f
       -0.19455376 0.023320448 0.37591746 0.5749003
0000a0 ba 42 cc 3d f6 e3 97 3d 3b e5 d9 3d 22 71 3f bf
       0.099736646 0.07416527 0.10639425 -0.74782
0000b0 2f 04 cb bd b1 76 d4 be 7e 44 26 be 7a 67 84 be
       -0.09912907 -0.41496804 -0.16237065 -0.25860196
0000c0 4b 6a 55 3e 60 58 fb bd 1e f3 65 be b7 00 99 3e
       0.20841329 -0.122727156 -0.22456023 0.29883358
0000d0 da b7 01 bc 1d 0a 6f be 55 3d b0 bc 52 b8 3e bf
       -0.007917369 -0.23343702 -0.02151362 -0.745
0000e0 8b 2d 9f be 47 d3 6e bd c0 ad a1 3e 0a 7e f6 be
       -0.31089434 -0.05830696 0.31577873 -0.48143035
0000f0 40 0c b5 3d 05 a8 92 be 09 c7 28 be 5c f9 84 be
       0.08840227 -0.28643814 -0.16482176 -0.25971496

StatefulPartitionedCall/lyt_8/msef_block_8/se_block_8/dense_125/BiasAdd/ReadVariableOp:0 f4 [32]
000000 ff 03 90 bd 2d b6 ab 3e e7 49 4a be 31 9b 88 3d
       -0.07032012 0.33537427 -0.19754754 0.066702254
000010 4e f3 25 3e a3 75 0d 3e 52 f0 68 3e 1e 59 25 3e
       0.16206095 0.13814406 0.22747925 0.16147277
000020 8e db 5f 3e d7 84 82 bc b6 96 99 bd 45 8d 9e 3c
       0.21861097 -0.015932484 -0.07499449 0.019354472
000030 4d 84 9e be ec 06 7a be ee d2 80 3c 5b 0d fd 3d
       -0.30960312 -0.24416703 0.01572558 0.12356063
000040 08 ce 00 3e 7e e8 67 be d7 f9 f3 bc 2d d2 a4 3e
       0.12578595 -0.22647282 -0.029782219 0.321916
000050 5f 6f 16 3c f4 a5 d0 3c 36 ba 18 be 4b 4f 2f be
       0.009181826 0.025469758 -0.14914784 -0.17120092
000060 4b 08 91 3d 94 c1 d1 3d cf 70 72 3d 22 13 19 3e
       0.0708166 0.10242 0.059189614 0.14948705
000070 02 cd 28 be 19 fa 02 be 17 95 22 3e c0 82 a6 bc
       -0.16484454 -0.12790717 0.15877186 -0.020326018

StatefulPartitionedCall/lyt_8/msef_block_8/se_block_8/dense_124/MatMul/ReadVariableOp:0 f4 [32, 2]
000000 4c 50 12 bd 4d 9d 14 3f 7a d7 f7 bd 00 d5 82 be
       -0.03572111 0.5805252 -0.12101646 -0.2555313
000010 3d aa 94 3e 01 0a 8b 3e e1 b7 c7 be 1b 7d 59 bd
       0.29036132 0.2715607 -0.39007476 -0.053097825
000020 35 1b ef bc 24 57 78 3d ef e2 35 3e 9c 0d 03 be
       -0.029187778 0.06062998 0.1776235 -0.1279816
000030 f9 2c d1 bd ff 8e 30 bd 16 95 bd bd b2 74 b1 be
       -0.10213656 -0.04310512 -0.092569515 -0.34659344
000040 89 d7 92 be 87 4b ab bd cf a8 d5 bc a3 18 74 be
       -0.28680065 -0.08364015 -0.02608147 -0.23837523
000050 2d 0f 4f be 6e 35 0d be 71 df 88 bd 1e a0 bf be
       -0.20220633 -0.13789913 -0.06683243 -0.37426847
000060 99 10 cd be 46 5c ad be 16 2e 32 3e e4 58 b6 3d
       -0.40051726 -0.33859462 0.17400393 0.08903673
000070 8b 6d 86 bd 3d 3f 44 bd 15 95 c0 be b6 a7 b9 3e
       -0.065638624 -0.04791187 -0.3761374 0.36260766
000080 33 93 e8 be b1 66 01 3e ad 46 28 bc 54 14 8e be
       -0.45424804 0.1263683 -0.010270757 -0.27749884
000090 ec f6 a5 3e 41 e9 ef 3d f5 d9 77 be a7 0d 7d be
       0.3241495 0.117144115 -0.24204238 -0.24712239
0000a0 30 3b fa be cc 2b 1f be a8 18 8e 3e 0a 8c 45 bd
       -0.4887328 -0.15544051 0.27753186 -0.048229255
0000b0 ff 83 6a 3e 6a ec 51 3d 36 72 86 3e 84 fe 5e be
       0.22901915 0.051250853 0.2625901 -0.21776778
0000c0 4d 76 b6 3e ba 64 6d bc da 37 9e be f1 32 d5 be
       0.3563713 -0.014489347 -0.30901986 -0.41640428
0000d0 21 66 eb bc 9a f6 c3 be c5 ca 40 3d 28 db 85 3e
       -0.028735222 -0.3827408 0.047068376 0.26143765
0000e0 c6 33 b3 3e d7 56 d1 be 7c 44 11 3e 42 51 4d be
       0.35000437 -0.40886566 0.14186281 -0.20050529
0000f0 ef 35 8b 3d cc e5 98 be 94 54 28 be 64 57 01 3e
       0.067973964 -0.2986282 -0.16438514 0.12630993

StatefulPartitionedCall/lyt_8/msef_block_8/se_block_8/dense_124/BiasAdd/ReadVariableOp:0 f4 [2]
000000 8b 28 1e 3d d3 12 65 3d
       0.038612884 0.055926155

StatefulPartitionedCall/lyt_8/msef_block_8/layer_normalization_8/mul/ReadVariableOp:0 f4 [32]
000000 8c 25 92 3f fc 3d 66 3f 11 92 7c 3f 59 ee 82 3f
       1.1417708 0.8993833 0.9866038 1.0228988
000010 7e b7 65 3f 85 1f 7c 3f 89 ec 87 3f ac 4d 5b 3f
       0.8973311 0.98485595 1.061906 0.8566539
000020 cc e3 5c 3f 77 23 6f 3f e8 73 81 3f db 1a 84 3f
       0.8628509 0.9341349 1.0113497 1.0320696
000030 49 b3 7c 3f 1b b6 96 3f 61 de 60 3f a1 1a 78 3f
       0.9871107 1.1774324 0.87839323 0.9691563
000040 88 74 75 3f 78 5e 7f 3f 99 e9 68 3f 2a fa 83 3f
       0.9588094 0.9975352 0.9098144 1.0310719
000050 a6 ec 86 3f 03 39 63 3f 32 87 82 3f 91 b9 78 3f
       1.0540969 0.8875887 1.0197508 0.9715815
000060 44 f6 61 3f 7f c1 85 3f c9 28 6c 3f 70 81 71 3f
       0.88266397 1.0449675 0.92249733 0.9433813
000070 bf 78 8e 3f 56 fb 89 3f ec fb 80 3f 21 13 4f 3f
       1.1130599 1.0779827 1.007688 0.80888563

StatefulPartitionedCall/lyt_8/msef_block_8/layer_normalization_8/add/ReadVariableOp:0 f4 [32]
000000 6c 47 33 3d 68 fc 3a bc 75 b5 73 3d 54 fc 74 bc
       0.043769285 -0.011412717 0.059499223 -0.014952738
000010 2f 4c c0 bd dc 9c 93 bd 00 40 38 3d a7 ff 55 bd
       -0.09389531 -0.07207653 0.04498291 -0.052245762
000020 33 68 dd 3c f3 fc 8b bc 00 c9 d0 bd 24 01 05 bd
       0.027027225 -0.017088389 -0.10194588 -0.03247179
000030 61 10 ce 3b a7 f5 a8 3d ad b1 75 bd 6a 99 da 3c
       0.0062885736 0.082499795 -0.059983898 0.026684482
000040 e9 4d 72 3d 59 4a e0 3c 15 36 0a bc 03 91 68 3c
       0.059156332 0.027379202 -0.008435746 0.01419473
000050 a7 11 ee bc 15 eb df bc aa 20 e0 3d 8d 51 81 bd
       -0.029061152 -0.027333776 0.1094373 -0.06314383
000060 fe bd bc bb 54 e8 e8 bc 88 35 a4 bc f8 b6 67 3c
       -0.0057599535 -0.028431095 -0.020045057 0.014142744
000070 aa a3 70 bd d3 6c 73 bd b1 2c b5 bc 8c 4a e7 3c
       -0.058749832 -0.059429955 -0.022116037 0.028233789

StatefulPartitionedCall/lyt_8/msef_block_8/depthwise_conv2d_8/BiasAdd/ReadVariableOp:0 f4 [32]
000000 04 c0 a1 bd 1a dc cf 3d 0e e6 eb 3d 18 30 6a 3e
       -0.07897952 0.10149403 0.11518489 0.22869909
000010 06 e1 ff bd 23 11 2e 3e b3 43 02 3e ef b8 55 3d
       -0.12494092 0.16998725 0.12721138 0.05217832
000020 c6 2d 2a 3d fe 44 f0 bb 5c e2 b8 3d 50 df 11 3e
       0.04154756 -0.0073324433 0.090275496 0.14245343
000030 2d 61 39 be a1 60 1d be 6b a7 d6 bc 8f 38 e6 3d
       -0.18103476 -0.15368892 -0.026202878 0.112412564
000040 86 39 11 3e 9f d7 81 be 26 71 3b be 35 16 aa 3d
       0.141821 -0.25359818 -0.18304881 0.08305017
000050 10 6d a2 3b 82 35 a1 be 7a b9 da 3c 55 e6 10 be
       0.004956849 -0.31486136 0.02669977 -0.14150365
000060 f0 bd 0c 3e 71 a2 31 be a4 a1 58 3e a9 95 12 be
       0.1374433 -0.17347123 0.21155411 -0.14314903
000070 cc b5 46 3e ed 11 ce bd a0 a1 2b bc 9d 7f 34 be
       0.19405288 -0.10062013 -0.010475546 -0.17626806

StatefulPartitionedCall/lyt_8/kernel:0 f4 [3, 3]
000000 87 16 99 3e 2e ac 16 be 07 6f 1d 3f a2 45 16 3f
       0.299 -0.14714119 0.6149754 0.587
000010 a9 e6 93 be c1 d4 03 bf d5 78 e9 3d c0 3c df 3e
       -0.28886917 -0.5149651 0.114 0.43601036
000020 2e d2 cc bd
       -0.10001026
